{"class_name": "Model", "config": {"name": "model_1", "layers": [{"name": "input_1", "class_name": "InputLayer", "config": {"batch_input_shape": [null, null, null, 3], "dtype": "float32", "sparse": false, "name": "input_1"}, "inbound_nodes": []}, {"name": "Conv_pad", "class_name": "ZeroPadding2D", "config": {"name": "Conv_pad", "trainable": true, "dtype": "float32", "padding": [[0, 1], [0, 1]], "data_format": "channels_last"}, "inbound_nodes": [[["input_1", 0, 0, {}]]]}, {"name": "Conv", "class_name": "Conv2D", "config": {"name": "Conv", "trainable": true, "dtype": "float32", "filters": 16, "kernel_size": [3, 3], "strides": [2, 2], "padding": "valid", "data_format": "channels_last", "dilation_rate": [1, 1], "activation": "linear", "use_bias": false, "kernel_initializer": {"class_name": "VarianceScaling", "config": {"scale": 1.0, "mode": "fan_avg", "distribution": "uniform", "seed": null}}, "bias_initializer": {"class_name": "Zeros", "config": {}}, "kernel_regularizer": null, "bias_regularizer": null, "activity_regularizer": null, "kernel_constraint": null, "bias_constraint": null}, "inbound_nodes": [[["Conv_pad", 0, 0, {}]]]}, {"name": "Conv/BatchNorm", "class_name": "BatchNormalization", "config": {"name": "Conv/BatchNorm", "trainable": true, "dtype": "float32", "axis": -1, "momentum": 0.999, "epsilon": 0.001, "center": true, "scale": true, "beta_initializer": {"class_name": "Zeros", "config": {}}, "gamma_initializer": {"class_name": "Ones", "config": {}}, "moving_mean_initializer": {"class_name": "Zeros", "config": {}}, "moving_variance_initializer": {"class_name": "Ones", "config": {}}, "beta_regularizer": null, "gamma_regularizer": null, "beta_constraint": null, "gamma_constraint": null}, "inbound_nodes": [[["Conv", 0, 0, {}]]]}, {"name": "activation_1", "class_name": "Activation", "config": {"name": "activation_1", "trainable": true, "dtype": "float32", "activation": "hard_swish"}, "inbound_nodes": [[["Conv/BatchNorm", 0, 0, {}]]]}, {"name": "expanded_conv/depthwise", "class_name": "DepthwiseConv2D", "config": {"name": "expanded_conv/depthwise", "trainable": true, "dtype": "float32", "kernel_size": [3, 3], "strides": [1, 1], "padding": "same", "data_format": "channels_last", "dilation_rate": [1, 1], "activation": "linear", "use_bias": false, "bias_initializer": {"class_name": "Zeros", "config": {}}, "bias_regularizer": null, "activity_regularizer": null, "bias_constraint": null, "depth_multiplier": 1, "depthwise_initializer": {"class_name": "VarianceScaling", "config": {"scale": 1.0, "mode": "fan_avg", "distribution": "uniform", "seed": null}}, "depthwise_regularizer": null, "depthwise_constraint": null}, "inbound_nodes": [[["activation_1", 0, 0, {}]]]}, {"name": "expanded_conv/depthwise/BatchNorm", "class_name": "BatchNormalization", "config": {"name": "expanded_conv/depthwise/BatchNorm", "trainable": true, "dtype": "float32", "axis": -1, "momentum": 0.999, "epsilon": 0.001, "center": true, "scale": true, "beta_initializer": {"class_name": "Zeros", "config": {}}, "gamma_initializer": {"class_name": "Ones", "config": {}}, "moving_mean_initializer": {"class_name": "Zeros", "config": {}}, "moving_variance_initializer": {"class_name": "Ones", "config": {}}, "beta_regularizer": null, "gamma_regularizer": null, "beta_constraint": null, "gamma_constraint": null}, "inbound_nodes": [[["expanded_conv/depthwise", 0, 0, {}]]]}, {"name": "activation_3", "class_name": "Activation", "config": {"name": "activation_3", "trainable": true, "dtype": "float32", "activation": "relu"}, "inbound_nodes": [[["expanded_conv/depthwise/BatchNorm", 0, 0, {}]]]}, {"name": "expanded_conv/project", "class_name": "Conv2D", "config": {"name": "expanded_conv/project", "trainable": true, "dtype": "float32", "filters": 16, "kernel_size": [1, 1], "strides": [1, 1], "padding": "same", "data_format": "channels_last", "dilation_rate": [1, 1], "activation": "linear", "use_bias": false, "kernel_initializer": {"class_name": "VarianceScaling", "config": {"scale": 1.0, "mode": "fan_avg", "distribution": "uniform", "seed": null}}, "bias_initializer": {"class_name": "Zeros", "config": {}}, "kernel_regularizer": null, "bias_regularizer": null, "activity_regularizer": null, "kernel_constraint": null, "bias_constraint": null}, "inbound_nodes": [[["activation_3", 0, 0, {}]]]}, {"name": "expanded_conv/project/BatchNorm", "class_name": "BatchNormalization", "config": {"name": "expanded_conv/project/BatchNorm", "trainable": true, "dtype": "float32", "axis": -1, "momentum": 0.999, "epsilon": 0.001, "center": true, "scale": true, "beta_initializer": {"class_name": "Zeros", "config": {}}, "gamma_initializer": {"class_name": "Ones", "config": {}}, "moving_mean_initializer": {"class_name": "Zeros", "config": {}}, "moving_variance_initializer": {"class_name": "Ones", "config": {}}, "beta_regularizer": null, "gamma_regularizer": null, "beta_constraint": null, "gamma_constraint": null}, "inbound_nodes": [[["expanded_conv/project", 0, 0, {}]]]}, {"name": "expanded_conv/Add", "class_name": "Add", "config": {"name": "expanded_conv/Add", "trainable": true, "dtype": "float32"}, "inbound_nodes": [[["activation_1", 0, 0, {}], ["expanded_conv/project/BatchNorm", 0, 0, {}]]]}, {"name": "expanded_conv_1/expand", "class_name": "Conv2D", "config": {"name": "expanded_conv_1/expand", "trainable": true, "dtype": "float32", "filters": 64, "kernel_size": [1, 1], "strides": [1, 1], "padding": "same", "data_format": "channels_last", "dilation_rate": [1, 1], "activation": "linear", "use_bias": false, "kernel_initializer": {"class_name": "VarianceScaling", "config": {"scale": 1.0, "mode": "fan_avg", "distribution": "uniform", "seed": null}}, "bias_initializer": {"class_name": "Zeros", "config": {}}, "kernel_regularizer": null, "bias_regularizer": null, "activity_regularizer": null, "kernel_constraint": null, "bias_constraint": null}, "inbound_nodes": [[["expanded_conv/Add", 0, 0, {}]]]}, {"name": "expanded_conv_1/expand/BatchNorm", "class_name": "BatchNormalization", "config": {"name": "expanded_conv_1/expand/BatchNorm", "trainable": true, "dtype": "float32", "axis": -1, "momentum": 0.999, "epsilon": 0.001, "center": true, "scale": true, "beta_initializer": {"class_name": "Zeros", "config": {}}, "gamma_initializer": {"class_name": "Ones", "config": {}}, "moving_mean_initializer": {"class_name": "Zeros", "config": {}}, "moving_variance_initializer": {"class_name": "Ones", "config": {}}, "beta_regularizer": null, "gamma_regularizer": null, "beta_constraint": null, "gamma_constraint": null}, "inbound_nodes": [[["expanded_conv_1/expand", 0, 0, {}]]]}, {"name": "activation_4", "class_name": "Activation", "config": {"name": "activation_4", "trainable": true, "dtype": "float32", "activation": "relu"}, "inbound_nodes": [[["expanded_conv_1/expand/BatchNorm", 0, 0, {}]]]}, {"name": "expanded_conv_1/depthwise/pad", "class_name": "ZeroPadding2D", "config": {"name": "expanded_conv_1/depthwise/pad", "trainable": true, "dtype": "float32", "padding": [[0, 1], [0, 1]], "data_format": "channels_last"}, "inbound_nodes": [[["activation_4", 0, 0, {}]]]}, {"name": "expanded_conv_1/depthwise", "class_name": "DepthwiseConv2D", "config": {"name": "expanded_conv_1/depthwise", "trainable": true, "dtype": "float32", "kernel_size": [3, 3], "strides": [2, 2], "padding": "valid", "data_format": "channels_last", "dilation_rate": [1, 1], "activation": "linear", "use_bias": false, "bias_initializer": {"class_name": "Zeros", "config": {}}, "bias_regularizer": null, "activity_regularizer": null, "bias_constraint": null, "depth_multiplier": 1, "depthwise_initializer": {"class_name": "VarianceScaling", "config": {"scale": 1.0, "mode": "fan_avg", "distribution": "uniform", "seed": null}}, "depthwise_regularizer": null, "depthwise_constraint": null}, "inbound_nodes": [[["expanded_conv_1/depthwise/pad", 0, 0, {}]]]}, {"name": "expanded_conv_1/depthwise/BatchNorm", "class_name": "BatchNormalization", "config": {"name": "expanded_conv_1/depthwise/BatchNorm", "trainable": true, "dtype": "float32", "axis": -1, "momentum": 0.999, "epsilon": 0.001, "center": true, "scale": true, "beta_initializer": {"class_name": "Zeros", "config": {}}, "gamma_initializer": {"class_name": "Ones", "config": {}}, "moving_mean_initializer": {"class_name": "Zeros", "config": {}}, "moving_variance_initializer": {"class_name": "Ones", "config": {}}, "beta_regularizer": null, "gamma_regularizer": null, "beta_constraint": null, "gamma_constraint": null}, "inbound_nodes": [[["expanded_conv_1/depthwise", 0, 0, {}]]]}, {"name": "activation_5", "class_name": "Activation", "config": {"name": "activation_5", "trainable": true, "dtype": "float32", "activation": "relu"}, "inbound_nodes": [[["expanded_conv_1/depthwise/BatchNorm", 0, 0, {}]]]}, {"name": "expanded_conv_1/project", "class_name": "Conv2D", "config": {"name": "expanded_conv_1/project", "trainable": true, "dtype": "float32", "filters": 24, "kernel_size": [1, 1], "strides": [1, 1], "padding": "same", "data_format": "channels_last", "dilation_rate": [1, 1], "activation": "linear", "use_bias": false, "kernel_initializer": {"class_name": "VarianceScaling", "config": {"scale": 1.0, "mode": "fan_avg", "distribution": "uniform", "seed": null}}, "bias_initializer": {"class_name": "Zeros", "config": {}}, "kernel_regularizer": null, "bias_regularizer": null, "activity_regularizer": null, "kernel_constraint": null, "bias_constraint": null}, "inbound_nodes": [[["activation_5", 0, 0, {}]]]}, {"name": "expanded_conv_1/project/BatchNorm", "class_name": "BatchNormalization", "config": {"name": "expanded_conv_1/project/BatchNorm", "trainable": true, "dtype": "float32", "axis": -1, "momentum": 0.999, "epsilon": 0.001, "center": true, "scale": true, "beta_initializer": {"class_name": "Zeros", "config": {}}, "gamma_initializer": {"class_name": "Ones", "config": {}}, "moving_mean_initializer": {"class_name": "Zeros", "config": {}}, "moving_variance_initializer": {"class_name": "Ones", "config": {}}, "beta_regularizer": null, "gamma_regularizer": null, "beta_constraint": null, "gamma_constraint": null}, "inbound_nodes": [[["expanded_conv_1/project", 0, 0, {}]]]}, {"name": "expanded_conv_2/expand", "class_name": "Conv2D", "config": {"name": "expanded_conv_2/expand", "trainable": true, "dtype": "float32", "filters": 72, "kernel_size": [1, 1], "strides": [1, 1], "padding": "same", "data_format": "channels_last", "dilation_rate": [1, 1], "activation": "linear", "use_bias": false, "kernel_initializer": {"class_name": "VarianceScaling", "config": {"scale": 1.0, "mode": "fan_avg", "distribution": "uniform", "seed": null}}, "bias_initializer": {"class_name": "Zeros", "config": {}}, "kernel_regularizer": null, "bias_regularizer": null, "activity_regularizer": null, "kernel_constraint": null, "bias_constraint": null}, "inbound_nodes": [[["expanded_conv_1/project/BatchNorm", 0, 0, {}]]]}, {"name": "expanded_conv_2/expand/BatchNorm", "class_name": "BatchNormalization", "config": {"name": "expanded_conv_2/expand/BatchNorm", "trainable": true, "dtype": "float32", "axis": -1, "momentum": 0.999, "epsilon": 0.001, "center": true, "scale": true, "beta_initializer": {"class_name": "Zeros", "config": {}}, "gamma_initializer": {"class_name": "Ones", "config": {}}, "moving_mean_initializer": {"class_name": "Zeros", "config": {}}, "moving_variance_initializer": {"class_name": "Ones", "config": {}}, "beta_regularizer": null, "gamma_regularizer": null, "beta_constraint": null, "gamma_constraint": null}, "inbound_nodes": [[["expanded_conv_2/expand", 0, 0, {}]]]}, {"name": "activation_6", "class_name": "Activation", "config": {"name": "activation_6", "trainable": true, "dtype": "float32", "activation": "relu"}, "inbound_nodes": [[["expanded_conv_2/expand/BatchNorm", 0, 0, {}]]]}, {"name": "expanded_conv_2/depthwise", "class_name": "DepthwiseConv2D", "config": {"name": "expanded_conv_2/depthwise", "trainable": true, "dtype": "float32", "kernel_size": [3, 3], "strides": [1, 1], "padding": "same", "data_format": "channels_last", "dilation_rate": [1, 1], "activation": "linear", "use_bias": false, "bias_initializer": {"class_name": "Zeros", "config": {}}, "bias_regularizer": null, "activity_regularizer": null, "bias_constraint": null, "depth_multiplier": 1, "depthwise_initializer": {"class_name": "VarianceScaling", "config": {"scale": 1.0, "mode": "fan_avg", "distribution": "uniform", "seed": null}}, "depthwise_regularizer": null, "depthwise_constraint": null}, "inbound_nodes": [[["activation_6", 0, 0, {}]]]}, {"name": "expanded_conv_2/depthwise/BatchNorm", "class_name": "BatchNormalization", "config": {"name": "expanded_conv_2/depthwise/BatchNorm", "trainable": true, "dtype": "float32", "axis": -1, "momentum": 0.999, "epsilon": 0.001, "center": true, "scale": true, "beta_initializer": {"class_name": "Zeros", "config": {}}, "gamma_initializer": {"class_name": "Ones", "config": {}}, "moving_mean_initializer": {"class_name": "Zeros", "config": {}}, "moving_variance_initializer": {"class_name": "Ones", "config": {}}, "beta_regularizer": null, "gamma_regularizer": null, "beta_constraint": null, "gamma_constraint": null}, "inbound_nodes": [[["expanded_conv_2/depthwise", 0, 0, {}]]]}, {"name": "activation_7", "class_name": "Activation", "config": {"name": "activation_7", "trainable": true, "dtype": "float32", "activation": "relu"}, "inbound_nodes": [[["expanded_conv_2/depthwise/BatchNorm", 0, 0, {}]]]}, {"name": "expanded_conv_2/project", "class_name": "Conv2D", "config": {"name": "expanded_conv_2/project", "trainable": true, "dtype": "float32", "filters": 24, "kernel_size": [1, 1], "strides": [1, 1], "padding": "same", "data_format": "channels_last", "dilation_rate": [1, 1], "activation": "linear", "use_bias": false, "kernel_initializer": {"class_name": "VarianceScaling", "config": {"scale": 1.0, "mode": "fan_avg", "distribution": "uniform", "seed": null}}, "bias_initializer": {"class_name": "Zeros", "config": {}}, "kernel_regularizer": null, "bias_regularizer": null, "activity_regularizer": null, "kernel_constraint": null, "bias_constraint": null}, "inbound_nodes": [[["activation_7", 0, 0, {}]]]}, {"name": "expanded_conv_2/project/BatchNorm", "class_name": "BatchNormalization", "config": {"name": "expanded_conv_2/project/BatchNorm", "trainable": true, "dtype": "float32", "axis": -1, "momentum": 0.999, "epsilon": 0.001, "center": true, "scale": true, "beta_initializer": {"class_name": "Zeros", "config": {}}, "gamma_initializer": {"class_name": "Ones", "config": {}}, "moving_mean_initializer": {"class_name": "Zeros", "config": {}}, "moving_variance_initializer": {"class_name": "Ones", "config": {}}, "beta_regularizer": null, "gamma_regularizer": null, "beta_constraint": null, "gamma_constraint": null}, "inbound_nodes": [[["expanded_conv_2/project", 0, 0, {}]]]}, {"name": "expanded_conv_2/Add", "class_name": "Add", "config": {"name": "expanded_conv_2/Add", "trainable": true, "dtype": "float32"}, "inbound_nodes": [[["expanded_conv_1/project/BatchNorm", 0, 0, {}], ["expanded_conv_2/project/BatchNorm", 0, 0, {}]]]}, {"name": "expanded_conv_3/expand", "class_name": "Conv2D", "config": {"name": "expanded_conv_3/expand", "trainable": true, "dtype": "float32", "filters": 72, "kernel_size": [1, 1], "strides": [1, 1], "padding": "same", "data_format": "channels_last", "dilation_rate": [1, 1], "activation": "linear", "use_bias": false, "kernel_initializer": {"class_name": "VarianceScaling", "config": {"scale": 1.0, "mode": "fan_avg", "distribution": "uniform", "seed": null}}, "bias_initializer": {"class_name": "Zeros", "config": {}}, "kernel_regularizer": null, "bias_regularizer": null, "activity_regularizer": null, "kernel_constraint": null, "bias_constraint": null}, "inbound_nodes": [[["expanded_conv_2/Add", 0, 0, {}]]]}, {"name": "expanded_conv_3/expand/BatchNorm", "class_name": "BatchNormalization", "config": {"name": "expanded_conv_3/expand/BatchNorm", "trainable": true, "dtype": "float32", "axis": -1, "momentum": 0.999, "epsilon": 0.001, "center": true, "scale": true, "beta_initializer": {"class_name": "Zeros", "config": {}}, "gamma_initializer": {"class_name": "Ones", "config": {}}, "moving_mean_initializer": {"class_name": "Zeros", "config": {}}, "moving_variance_initializer": {"class_name": "Ones", "config": {}}, "beta_regularizer": null, "gamma_regularizer": null, "beta_constraint": null, "gamma_constraint": null}, "inbound_nodes": [[["expanded_conv_3/expand", 0, 0, {}]]]}, {"name": "activation_8", "class_name": "Activation", "config": {"name": "activation_8", "trainable": true, "dtype": "float32", "activation": "relu"}, "inbound_nodes": [[["expanded_conv_3/expand/BatchNorm", 0, 0, {}]]]}, {"name": "expanded_conv_3/depthwise/pad", "class_name": "ZeroPadding2D", "config": {"name": "expanded_conv_3/depthwise/pad", "trainable": true, "dtype": "float32", "padding": [[1, 2], [1, 2]], "data_format": "channels_last"}, "inbound_nodes": [[["activation_8", 0, 0, {}]]]}, {"name": "expanded_conv_3/depthwise", "class_name": "DepthwiseConv2D", "config": {"name": "expanded_conv_3/depthwise", "trainable": true, "dtype": "float32", "kernel_size": [5, 5], "strides": [2, 2], "padding": "valid", "data_format": "channels_last", "dilation_rate": [1, 1], "activation": "linear", "use_bias": false, "bias_initializer": {"class_name": "Zeros", "config": {}}, "bias_regularizer": null, "activity_regularizer": null, "bias_constraint": null, "depth_multiplier": 1, "depthwise_initializer": {"class_name": "VarianceScaling", "config": {"scale": 1.0, "mode": "fan_avg", "distribution": "uniform", "seed": null}}, "depthwise_regularizer": null, "depthwise_constraint": null}, "inbound_nodes": [[["expanded_conv_3/depthwise/pad", 0, 0, {}]]]}, {"name": "expanded_conv_3/depthwise/BatchNorm", "class_name": "BatchNormalization", "config": {"name": "expanded_conv_3/depthwise/BatchNorm", "trainable": true, "dtype": "float32", "axis": -1, "momentum": 0.999, "epsilon": 0.001, "center": true, "scale": true, "beta_initializer": {"class_name": "Zeros", "config": {}}, "gamma_initializer": {"class_name": "Ones", "config": {}}, "moving_mean_initializer": {"class_name": "Zeros", "config": {}}, "moving_variance_initializer": {"class_name": "Ones", "config": {}}, "beta_regularizer": null, "gamma_regularizer": null, "beta_constraint": null, "gamma_constraint": null}, "inbound_nodes": [[["expanded_conv_3/depthwise", 0, 0, {}]]]}, {"name": "activation_9", "class_name": "Activation", "config": {"name": "activation_9", "trainable": true, "dtype": "float32", "activation": "relu"}, "inbound_nodes": [[["expanded_conv_3/depthwise/BatchNorm", 0, 0, {}]]]}, {"name": "expanded_conv_3/squeeze_excite/AvgPool", "class_name": "GlobalAveragePooling2D", "config": {"name": "expanded_conv_3/squeeze_excite/AvgPool", "trainable": true, "dtype": "float32", "data_format": "channels_last"}, "inbound_nodes": [[["activation_9", 0, 0, {}]]]}, {"name": "reshape_1", "class_name": "Reshape", "config": {"name": "reshape_1", "trainable": true, "dtype": "float32", "target_shape": [1, 1, 72]}, "inbound_nodes": [[["expanded_conv_3/squeeze_excite/AvgPool", 0, 0, {}]]]}, {"name": "expanded_conv_3/squeeze_excite/Conv", "class_name": "Conv2D", "config": {"name": "expanded_conv_3/squeeze_excite/Conv", "trainable": true, "dtype": "float32", "filters": 24, "kernel_size": [1, 1], "strides": [1, 1], "padding": "same", "data_format": "channels_last", "dilation_rate": [1, 1], "activation": "linear", "use_bias": true, "kernel_initializer": {"class_name": "VarianceScaling", "config": {"scale": 1.0, "mode": "fan_avg", "distribution": "uniform", "seed": null}}, "bias_initializer": {"class_name": "Zeros", "config": {}}, "kernel_regularizer": null, "bias_regularizer": null, "activity_regularizer": null, "kernel_constraint": null, "bias_constraint": null}, "inbound_nodes": [[["reshape_1", 0, 0, {}]]]}, {"name": "expanded_conv_3/squeeze_excite/Relu", "class_name": "ReLU", "config": {"name": "expanded_conv_3/squeeze_excite/Relu", "trainable": true, "dtype": "float32", "max_value": null, "negative_slope": 0.0, "threshold": 0.0}, "inbound_nodes": [[["expanded_conv_3/squeeze_excite/Conv", 0, 0, {}]]]}, {"name": "expanded_conv_3/squeeze_excite/Conv_1", "class_name": "Conv2D", "config": {"name": "expanded_conv_3/squeeze_excite/Conv_1", "trainable": true, "dtype": "float32", "filters": 72, "kernel_size": [1, 1], "strides": [1, 1], "padding": "same", "data_format": "channels_last", "dilation_rate": [1, 1], "activation": "linear", "use_bias": true, "kernel_initializer": {"class_name": "VarianceScaling", "config": {"scale": 1.0, "mode": "fan_avg", "distribution": "uniform", "seed": null}}, "bias_initializer": {"class_name": "Zeros", "config": {}}, "kernel_regularizer": null, "bias_regularizer": null, "activity_regularizer": null, "kernel_constraint": null, "bias_constraint": null}, "inbound_nodes": [[["expanded_conv_3/squeeze_excite/Relu", 0, 0, {}]]]}, {"name": "activation_10", "class_name": "Activation", "config": {"name": "activation_10", "trainable": true, "dtype": "float32", "activation": "hard_sigmoid"}, "inbound_nodes": [[["expanded_conv_3/squeeze_excite/Conv_1", 0, 0, {}]]]}, {"name": "expanded_conv_3/squeeze_excite/Mul", "class_name": "Multiply", "config": {"name": "expanded_conv_3/squeeze_excite/Mul", "trainable": true, "dtype": "float32"}, "inbound_nodes": [[["activation_9", 0, 0, {}], ["activation_10", 0, 0, {}]]]}, {"name": "expanded_conv_3/project", "class_name": "Conv2D", "config": {"name": "expanded_conv_3/project", "trainable": true, "dtype": "float32", "filters": 40, "kernel_size": [1, 1], "strides": [1, 1], "padding": "same", "data_format": "channels_last", "dilation_rate": [1, 1], "activation": "linear", "use_bias": false, "kernel_initializer": {"class_name": "VarianceScaling", "config": {"scale": 1.0, "mode": "fan_avg", "distribution": "uniform", "seed": null}}, "bias_initializer": {"class_name": "Zeros", "config": {}}, "kernel_regularizer": null, "bias_regularizer": null, "activity_regularizer": null, "kernel_constraint": null, "bias_constraint": null}, "inbound_nodes": [[["expanded_conv_3/squeeze_excite/Mul", 0, 0, {}]]]}, {"name": "expanded_conv_3/project/BatchNorm", "class_name": "BatchNormalization", "config": {"name": "expanded_conv_3/project/BatchNorm", "trainable": true, "dtype": "float32", "axis": -1, "momentum": 0.999, "epsilon": 0.001, "center": true, "scale": true, "beta_initializer": {"class_name": "Zeros", "config": {}}, "gamma_initializer": {"class_name": "Ones", "config": {}}, "moving_mean_initializer": {"class_name": "Zeros", "config": {}}, "moving_variance_initializer": {"class_name": "Ones", "config": {}}, "beta_regularizer": null, "gamma_regularizer": null, "beta_constraint": null, "gamma_constraint": null}, "inbound_nodes": [[["expanded_conv_3/project", 0, 0, {}]]]}, {"name": "expanded_conv_4/expand", "class_name": "Conv2D", "config": {"name": "expanded_conv_4/expand", "trainable": true, "dtype": "float32", "filters": 120, "kernel_size": [1, 1], "strides": [1, 1], "padding": "same", "data_format": "channels_last", "dilation_rate": [1, 1], "activation": "linear", "use_bias": false, "kernel_initializer": {"class_name": "VarianceScaling", "config": {"scale": 1.0, "mode": "fan_avg", "distribution": "uniform", "seed": null}}, "bias_initializer": {"class_name": "Zeros", "config": {}}, "kernel_regularizer": null, "bias_regularizer": null, "activity_regularizer": null, "kernel_constraint": null, "bias_constraint": null}, "inbound_nodes": [[["expanded_conv_3/project/BatchNorm", 0, 0, {}]]]}, {"name": "expanded_conv_4/expand/BatchNorm", "class_name": "BatchNormalization", "config": {"name": "expanded_conv_4/expand/BatchNorm", "trainable": true, "dtype": "float32", "axis": -1, "momentum": 0.999, "epsilon": 0.001, "center": true, "scale": true, "beta_initializer": {"class_name": "Zeros", "config": {}}, "gamma_initializer": {"class_name": "Ones", "config": {}}, "moving_mean_initializer": {"class_name": "Zeros", "config": {}}, "moving_variance_initializer": {"class_name": "Ones", "config": {}}, "beta_regularizer": null, "gamma_regularizer": null, "beta_constraint": null, "gamma_constraint": null}, "inbound_nodes": [[["expanded_conv_4/expand", 0, 0, {}]]]}, {"name": "activation_11", "class_name": "Activation", "config": {"name": "activation_11", "trainable": true, "dtype": "float32", "activation": "relu"}, "inbound_nodes": [[["expanded_conv_4/expand/BatchNorm", 0, 0, {}]]]}, {"name": "expanded_conv_4/depthwise", "class_name": "DepthwiseConv2D", "config": {"name": "expanded_conv_4/depthwise", "trainable": true, "dtype": "float32", "kernel_size": [5, 5], "strides": [1, 1], "padding": "same", "data_format": "channels_last", "dilation_rate": [1, 1], "activation": "linear", "use_bias": false, "bias_initializer": {"class_name": "Zeros", "config": {}}, "bias_regularizer": null, "activity_regularizer": null, "bias_constraint": null, "depth_multiplier": 1, "depthwise_initializer": {"class_name": "VarianceScaling", "config": {"scale": 1.0, "mode": "fan_avg", "distribution": "uniform", "seed": null}}, "depthwise_regularizer": null, "depthwise_constraint": null}, "inbound_nodes": [[["activation_11", 0, 0, {}]]]}, {"name": "expanded_conv_4/depthwise/BatchNorm", "class_name": "BatchNormalization", "config": {"name": "expanded_conv_4/depthwise/BatchNorm", "trainable": true, "dtype": "float32", "axis": -1, "momentum": 0.999, "epsilon": 0.001, "center": true, "scale": true, "beta_initializer": {"class_name": "Zeros", "config": {}}, "gamma_initializer": {"class_name": "Ones", "config": {}}, "moving_mean_initializer": {"class_name": "Zeros", "config": {}}, "moving_variance_initializer": {"class_name": "Ones", "config": {}}, "beta_regularizer": null, "gamma_regularizer": null, "beta_constraint": null, "gamma_constraint": null}, "inbound_nodes": [[["expanded_conv_4/depthwise", 0, 0, {}]]]}, {"name": "activation_12", "class_name": "Activation", "config": {"name": "activation_12", "trainable": true, "dtype": "float32", "activation": "relu"}, "inbound_nodes": [[["expanded_conv_4/depthwise/BatchNorm", 0, 0, {}]]]}, {"name": "expanded_conv_4/squeeze_excite/AvgPool", "class_name": "GlobalAveragePooling2D", "config": {"name": "expanded_conv_4/squeeze_excite/AvgPool", "trainable": true, "dtype": "float32", "data_format": "channels_last"}, "inbound_nodes": [[["activation_12", 0, 0, {}]]]}, {"name": "reshape_2", "class_name": "Reshape", "config": {"name": "reshape_2", "trainable": true, "dtype": "float32", "target_shape": [1, 1, 120]}, "inbound_nodes": [[["expanded_conv_4/squeeze_excite/AvgPool", 0, 0, {}]]]}, {"name": "expanded_conv_4/squeeze_excite/Conv", "class_name": "Conv2D", "config": {"name": "expanded_conv_4/squeeze_excite/Conv", "trainable": true, "dtype": "float32", "filters": 32, "kernel_size": [1, 1], "strides": [1, 1], "padding": "same", "data_format": "channels_last", "dilation_rate": [1, 1], "activation": "linear", "use_bias": true, "kernel_initializer": {"class_name": "VarianceScaling", "config": {"scale": 1.0, "mode": "fan_avg", "distribution": "uniform", "seed": null}}, "bias_initializer": {"class_name": "Zeros", "config": {}}, "kernel_regularizer": null, "bias_regularizer": null, "activity_regularizer": null, "kernel_constraint": null, "bias_constraint": null}, "inbound_nodes": [[["reshape_2", 0, 0, {}]]]}, {"name": "expanded_conv_4/squeeze_excite/Relu", "class_name": "ReLU", "config": {"name": "expanded_conv_4/squeeze_excite/Relu", "trainable": true, "dtype": "float32", "max_value": null, "negative_slope": 0.0, "threshold": 0.0}, "inbound_nodes": [[["expanded_conv_4/squeeze_excite/Conv", 0, 0, {}]]]}, {"name": "expanded_conv_4/squeeze_excite/Conv_1", "class_name": "Conv2D", "config": {"name": "expanded_conv_4/squeeze_excite/Conv_1", "trainable": true, "dtype": "float32", "filters": 120, "kernel_size": [1, 1], "strides": [1, 1], "padding": "same", "data_format": "channels_last", "dilation_rate": [1, 1], "activation": "linear", "use_bias": true, "kernel_initializer": {"class_name": "VarianceScaling", "config": {"scale": 1.0, "mode": "fan_avg", "distribution": "uniform", "seed": null}}, "bias_initializer": {"class_name": "Zeros", "config": {}}, "kernel_regularizer": null, "bias_regularizer": null, "activity_regularizer": null, "kernel_constraint": null, "bias_constraint": null}, "inbound_nodes": [[["expanded_conv_4/squeeze_excite/Relu", 0, 0, {}]]]}, {"name": "activation_13", "class_name": "Activation", "config": {"name": "activation_13", "trainable": true, "dtype": "float32", "activation": "hard_sigmoid"}, "inbound_nodes": [[["expanded_conv_4/squeeze_excite/Conv_1", 0, 0, {}]]]}, {"name": "expanded_conv_4/squeeze_excite/Mul", "class_name": "Multiply", "config": {"name": "expanded_conv_4/squeeze_excite/Mul", "trainable": true, "dtype": "float32"}, "inbound_nodes": [[["activation_12", 0, 0, {}], ["activation_13", 0, 0, {}]]]}, {"name": "expanded_conv_4/project", "class_name": "Conv2D", "config": {"name": "expanded_conv_4/project", "trainable": true, "dtype": "float32", "filters": 40, "kernel_size": [1, 1], "strides": [1, 1], "padding": "same", "data_format": "channels_last", "dilation_rate": [1, 1], "activation": "linear", "use_bias": false, "kernel_initializer": {"class_name": "VarianceScaling", "config": {"scale": 1.0, "mode": "fan_avg", "distribution": "uniform", "seed": null}}, "bias_initializer": {"class_name": "Zeros", "config": {}}, "kernel_regularizer": null, "bias_regularizer": null, "activity_regularizer": null, "kernel_constraint": null, "bias_constraint": null}, "inbound_nodes": [[["expanded_conv_4/squeeze_excite/Mul", 0, 0, {}]]]}, {"name": "expanded_conv_4/project/BatchNorm", "class_name": "BatchNormalization", "config": {"name": "expanded_conv_4/project/BatchNorm", "trainable": true, "dtype": "float32", "axis": -1, "momentum": 0.999, "epsilon": 0.001, "center": true, "scale": true, "beta_initializer": {"class_name": "Zeros", "config": {}}, "gamma_initializer": {"class_name": "Ones", "config": {}}, "moving_mean_initializer": {"class_name": "Zeros", "config": {}}, "moving_variance_initializer": {"class_name": "Ones", "config": {}}, "beta_regularizer": null, "gamma_regularizer": null, "beta_constraint": null, "gamma_constraint": null}, "inbound_nodes": [[["expanded_conv_4/project", 0, 0, {}]]]}, {"name": "expanded_conv_4/Add", "class_name": "Add", "config": {"name": "expanded_conv_4/Add", "trainable": true, "dtype": "float32"}, "inbound_nodes": [[["expanded_conv_3/project/BatchNorm", 0, 0, {}], ["expanded_conv_4/project/BatchNorm", 0, 0, {}]]]}, {"name": "expanded_conv_5/expand", "class_name": "Conv2D", "config": {"name": "expanded_conv_5/expand", "trainable": true, "dtype": "float32", "filters": 120, "kernel_size": [1, 1], "strides": [1, 1], "padding": "same", "data_format": "channels_last", "dilation_rate": [1, 1], "activation": "linear", "use_bias": false, "kernel_initializer": {"class_name": "VarianceScaling", "config": {"scale": 1.0, "mode": "fan_avg", "distribution": "uniform", "seed": null}}, "bias_initializer": {"class_name": "Zeros", "config": {}}, "kernel_regularizer": null, "bias_regularizer": null, "activity_regularizer": null, "kernel_constraint": null, "bias_constraint": null}, "inbound_nodes": [[["expanded_conv_4/Add", 0, 0, {}]]]}, {"name": "expanded_conv_5/expand/BatchNorm", "class_name": "BatchNormalization", "config": {"name": "expanded_conv_5/expand/BatchNorm", "trainable": true, "dtype": "float32", "axis": -1, "momentum": 0.999, "epsilon": 0.001, "center": true, "scale": true, "beta_initializer": {"class_name": "Zeros", "config": {}}, "gamma_initializer": {"class_name": "Ones", "config": {}}, "moving_mean_initializer": {"class_name": "Zeros", "config": {}}, "moving_variance_initializer": {"class_name": "Ones", "config": {}}, "beta_regularizer": null, "gamma_regularizer": null, "beta_constraint": null, "gamma_constraint": null}, "inbound_nodes": [[["expanded_conv_5/expand", 0, 0, {}]]]}, {"name": "activation_14", "class_name": "Activation", "config": {"name": "activation_14", "trainable": true, "dtype": "float32", "activation": "relu"}, "inbound_nodes": [[["expanded_conv_5/expand/BatchNorm", 0, 0, {}]]]}, {"name": "expanded_conv_5/depthwise", "class_name": "DepthwiseConv2D", "config": {"name": "expanded_conv_5/depthwise", "trainable": true, "dtype": "float32", "kernel_size": [5, 5], "strides": [1, 1], "padding": "same", "data_format": "channels_last", "dilation_rate": [1, 1], "activation": "linear", "use_bias": false, "bias_initializer": {"class_name": "Zeros", "config": {}}, "bias_regularizer": null, "activity_regularizer": null, "bias_constraint": null, "depth_multiplier": 1, "depthwise_initializer": {"class_name": "VarianceScaling", "config": {"scale": 1.0, "mode": "fan_avg", "distribution": "uniform", "seed": null}}, "depthwise_regularizer": null, "depthwise_constraint": null}, "inbound_nodes": [[["activation_14", 0, 0, {}]]]}, {"name": "expanded_conv_5/depthwise/BatchNorm", "class_name": "BatchNormalization", "config": {"name": "expanded_conv_5/depthwise/BatchNorm", "trainable": true, "dtype": "float32", "axis": -1, "momentum": 0.999, "epsilon": 0.001, "center": true, "scale": true, "beta_initializer": {"class_name": "Zeros", "config": {}}, "gamma_initializer": {"class_name": "Ones", "config": {}}, "moving_mean_initializer": {"class_name": "Zeros", "config": {}}, "moving_variance_initializer": {"class_name": "Ones", "config": {}}, "beta_regularizer": null, "gamma_regularizer": null, "beta_constraint": null, "gamma_constraint": null}, "inbound_nodes": [[["expanded_conv_5/depthwise", 0, 0, {}]]]}, {"name": "activation_15", "class_name": "Activation", "config": {"name": "activation_15", "trainable": true, "dtype": "float32", "activation": "relu"}, "inbound_nodes": [[["expanded_conv_5/depthwise/BatchNorm", 0, 0, {}]]]}, {"name": "expanded_conv_5/squeeze_excite/AvgPool", "class_name": "GlobalAveragePooling2D", "config": {"name": "expanded_conv_5/squeeze_excite/AvgPool", "trainable": true, "dtype": "float32", "data_format": "channels_last"}, "inbound_nodes": [[["activation_15", 0, 0, {}]]]}, {"name": "reshape_3", "class_name": "Reshape", "config": {"name": "reshape_3", "trainable": true, "dtype": "float32", "target_shape": [1, 1, 120]}, "inbound_nodes": [[["expanded_conv_5/squeeze_excite/AvgPool", 0, 0, {}]]]}, {"name": "expanded_conv_5/squeeze_excite/Conv", "class_name": "Conv2D", "config": {"name": "expanded_conv_5/squeeze_excite/Conv", "trainable": true, "dtype": "float32", "filters": 32, "kernel_size": [1, 1], "strides": [1, 1], "padding": "same", "data_format": "channels_last", "dilation_rate": [1, 1], "activation": "linear", "use_bias": true, "kernel_initializer": {"class_name": "VarianceScaling", "config": {"scale": 1.0, "mode": "fan_avg", "distribution": "uniform", "seed": null}}, "bias_initializer": {"class_name": "Zeros", "config": {}}, "kernel_regularizer": null, "bias_regularizer": null, "activity_regularizer": null, "kernel_constraint": null, "bias_constraint": null}, "inbound_nodes": [[["reshape_3", 0, 0, {}]]]}, {"name": "expanded_conv_5/squeeze_excite/Relu", "class_name": "ReLU", "config": {"name": "expanded_conv_5/squeeze_excite/Relu", "trainable": true, "dtype": "float32", "max_value": null, "negative_slope": 0.0, "threshold": 0.0}, "inbound_nodes": [[["expanded_conv_5/squeeze_excite/Conv", 0, 0, {}]]]}, {"name": "expanded_conv_5/squeeze_excite/Conv_1", "class_name": "Conv2D", "config": {"name": "expanded_conv_5/squeeze_excite/Conv_1", "trainable": true, "dtype": "float32", "filters": 120, "kernel_size": [1, 1], "strides": [1, 1], "padding": "same", "data_format": "channels_last", "dilation_rate": [1, 1], "activation": "linear", "use_bias": true, "kernel_initializer": {"class_name": "VarianceScaling", "config": {"scale": 1.0, "mode": "fan_avg", "distribution": "uniform", "seed": null}}, "bias_initializer": {"class_name": "Zeros", "config": {}}, "kernel_regularizer": null, "bias_regularizer": null, "activity_regularizer": null, "kernel_constraint": null, "bias_constraint": null}, "inbound_nodes": [[["expanded_conv_5/squeeze_excite/Relu", 0, 0, {}]]]}, {"name": "activation_16", "class_name": "Activation", "config": {"name": "activation_16", "trainable": true, "dtype": "float32", "activation": "hard_sigmoid"}, "inbound_nodes": [[["expanded_conv_5/squeeze_excite/Conv_1", 0, 0, {}]]]}, {"name": "expanded_conv_5/squeeze_excite/Mul", "class_name": "Multiply", "config": {"name": "expanded_conv_5/squeeze_excite/Mul", "trainable": true, "dtype": "float32"}, "inbound_nodes": [[["activation_15", 0, 0, {}], ["activation_16", 0, 0, {}]]]}, {"name": "expanded_conv_5/project", "class_name": "Conv2D", "config": {"name": "expanded_conv_5/project", "trainable": true, "dtype": "float32", "filters": 40, "kernel_size": [1, 1], "strides": [1, 1], "padding": "same", "data_format": "channels_last", "dilation_rate": [1, 1], "activation": "linear", "use_bias": false, "kernel_initializer": {"class_name": "VarianceScaling", "config": {"scale": 1.0, "mode": "fan_avg", "distribution": "uniform", "seed": null}}, "bias_initializer": {"class_name": "Zeros", "config": {}}, "kernel_regularizer": null, "bias_regularizer": null, "activity_regularizer": null, "kernel_constraint": null, "bias_constraint": null}, "inbound_nodes": [[["expanded_conv_5/squeeze_excite/Mul", 0, 0, {}]]]}, {"name": "expanded_conv_5/project/BatchNorm", "class_name": "BatchNormalization", "config": {"name": "expanded_conv_5/project/BatchNorm", "trainable": true, "dtype": "float32", "axis": -1, "momentum": 0.999, "epsilon": 0.001, "center": true, "scale": true, "beta_initializer": {"class_name": "Zeros", "config": {}}, "gamma_initializer": {"class_name": "Ones", "config": {}}, "moving_mean_initializer": {"class_name": "Zeros", "config": {}}, "moving_variance_initializer": {"class_name": "Ones", "config": {}}, "beta_regularizer": null, "gamma_regularizer": null, "beta_constraint": null, "gamma_constraint": null}, "inbound_nodes": [[["expanded_conv_5/project", 0, 0, {}]]]}, {"name": "expanded_conv_5/Add", "class_name": "Add", "config": {"name": "expanded_conv_5/Add", "trainable": true, "dtype": "float32"}, "inbound_nodes": [[["expanded_conv_4/Add", 0, 0, {}], ["expanded_conv_5/project/BatchNorm", 0, 0, {}]]]}, {"name": "expanded_conv_6/expand", "class_name": "Conv2D", "config": {"name": "expanded_conv_6/expand", "trainable": true, "dtype": "float32", "filters": 240, "kernel_size": [1, 1], "strides": [1, 1], "padding": "same", "data_format": "channels_last", "dilation_rate": [1, 1], "activation": "linear", "use_bias": false, "kernel_initializer": {"class_name": "VarianceScaling", "config": {"scale": 1.0, "mode": "fan_avg", "distribution": "uniform", "seed": null}}, "bias_initializer": {"class_name": "Zeros", "config": {}}, "kernel_regularizer": null, "bias_regularizer": null, "activity_regularizer": null, "kernel_constraint": null, "bias_constraint": null}, "inbound_nodes": [[["expanded_conv_5/Add", 0, 0, {}]]]}, {"name": "expanded_conv_6/expand/BatchNorm", "class_name": "BatchNormalization", "config": {"name": "expanded_conv_6/expand/BatchNorm", "trainable": true, "dtype": "float32", "axis": -1, "momentum": 0.999, "epsilon": 0.001, "center": true, "scale": true, "beta_initializer": {"class_name": "Zeros", "config": {}}, "gamma_initializer": {"class_name": "Ones", "config": {}}, "moving_mean_initializer": {"class_name": "Zeros", "config": {}}, "moving_variance_initializer": {"class_name": "Ones", "config": {}}, "beta_regularizer": null, "gamma_regularizer": null, "beta_constraint": null, "gamma_constraint": null}, "inbound_nodes": [[["expanded_conv_6/expand", 0, 0, {}]]]}, {"name": "activation_17", "class_name": "Activation", "config": {"name": "activation_17", "trainable": true, "dtype": "float32", "activation": "hard_swish"}, "inbound_nodes": [[["expanded_conv_6/expand/BatchNorm", 0, 0, {}]]]}, {"name": "expanded_conv_6/depthwise/pad", "class_name": "ZeroPadding2D", "config": {"name": "expanded_conv_6/depthwise/pad", "trainable": true, "dtype": "float32", "padding": [[0, 1], [0, 1]], "data_format": "channels_last"}, "inbound_nodes": [[["activation_17", 0, 0, {}]]]}, {"name": "expanded_conv_6/depthwise", "class_name": "DepthwiseConv2D", "config": {"name": "expanded_conv_6/depthwise", "trainable": true, "dtype": "float32", "kernel_size": [3, 3], "strides": [2, 2], "padding": "valid", "data_format": "channels_last", "dilation_rate": [1, 1], "activation": "linear", "use_bias": false, "bias_initializer": {"class_name": "Zeros", "config": {}}, "bias_regularizer": null, "activity_regularizer": null, "bias_constraint": null, "depth_multiplier": 1, "depthwise_initializer": {"class_name": "VarianceScaling", "config": {"scale": 1.0, "mode": "fan_avg", "distribution": "uniform", "seed": null}}, "depthwise_regularizer": null, "depthwise_constraint": null}, "inbound_nodes": [[["expanded_conv_6/depthwise/pad", 0, 0, {}]]]}, {"name": "expanded_conv_6/depthwise/BatchNorm", "class_name": "BatchNormalization", "config": {"name": "expanded_conv_6/depthwise/BatchNorm", "trainable": true, "dtype": "float32", "axis": -1, "momentum": 0.999, "epsilon": 0.001, "center": true, "scale": true, "beta_initializer": {"class_name": "Zeros", "config": {}}, "gamma_initializer": {"class_name": "Ones", "config": {}}, "moving_mean_initializer": {"class_name": "Zeros", "config": {}}, "moving_variance_initializer": {"class_name": "Ones", "config": {}}, "beta_regularizer": null, "gamma_regularizer": null, "beta_constraint": null, "gamma_constraint": null}, "inbound_nodes": [[["expanded_conv_6/depthwise", 0, 0, {}]]]}, {"name": "activation_19", "class_name": "Activation", "config": {"name": "activation_19", "trainable": true, "dtype": "float32", "activation": "hard_swish"}, "inbound_nodes": [[["expanded_conv_6/depthwise/BatchNorm", 0, 0, {}]]]}, {"name": "expanded_conv_6/project", "class_name": "Conv2D", "config": {"name": "expanded_conv_6/project", "trainable": true, "dtype": "float32", "filters": 80, "kernel_size": [1, 1], "strides": [1, 1], "padding": "same", "data_format": "channels_last", "dilation_rate": [1, 1], "activation": "linear", "use_bias": false, "kernel_initializer": {"class_name": "VarianceScaling", "config": {"scale": 1.0, "mode": "fan_avg", "distribution": "uniform", "seed": null}}, "bias_initializer": {"class_name": "Zeros", "config": {}}, "kernel_regularizer": null, "bias_regularizer": null, "activity_regularizer": null, "kernel_constraint": null, "bias_constraint": null}, "inbound_nodes": [[["activation_19", 0, 0, {}]]]}, {"name": "expanded_conv_6/project/BatchNorm", "class_name": "BatchNormalization", "config": {"name": "expanded_conv_6/project/BatchNorm", "trainable": true, "dtype": "float32", "axis": -1, "momentum": 0.999, "epsilon": 0.001, "center": true, "scale": true, "beta_initializer": {"class_name": "Zeros", "config": {}}, "gamma_initializer": {"class_name": "Ones", "config": {}}, "moving_mean_initializer": {"class_name": "Zeros", "config": {}}, "moving_variance_initializer": {"class_name": "Ones", "config": {}}, "beta_regularizer": null, "gamma_regularizer": null, "beta_constraint": null, "gamma_constraint": null}, "inbound_nodes": [[["expanded_conv_6/project", 0, 0, {}]]]}, {"name": "expanded_conv_7/expand", "class_name": "Conv2D", "config": {"name": "expanded_conv_7/expand", "trainable": true, "dtype": "float32", "filters": 200, "kernel_size": [1, 1], "strides": [1, 1], "padding": "same", "data_format": "channels_last", "dilation_rate": [1, 1], "activation": "linear", "use_bias": false, "kernel_initializer": {"class_name": "VarianceScaling", "config": {"scale": 1.0, "mode": "fan_avg", "distribution": "uniform", "seed": null}}, "bias_initializer": {"class_name": "Zeros", "config": {}}, "kernel_regularizer": null, "bias_regularizer": null, "activity_regularizer": null, "kernel_constraint": null, "bias_constraint": null}, "inbound_nodes": [[["expanded_conv_6/project/BatchNorm", 0, 0, {}]]]}, {"name": "expanded_conv_7/expand/BatchNorm", "class_name": "BatchNormalization", "config": {"name": "expanded_conv_7/expand/BatchNorm", "trainable": true, "dtype": "float32", "axis": -1, "momentum": 0.999, "epsilon": 0.001, "center": true, "scale": true, "beta_initializer": {"class_name": "Zeros", "config": {}}, "gamma_initializer": {"class_name": "Ones", "config": {}}, "moving_mean_initializer": {"class_name": "Zeros", "config": {}}, "moving_variance_initializer": {"class_name": "Ones", "config": {}}, "beta_regularizer": null, "gamma_regularizer": null, "beta_constraint": null, "gamma_constraint": null}, "inbound_nodes": [[["expanded_conv_7/expand", 0, 0, {}]]]}, {"name": "activation_21", "class_name": "Activation", "config": {"name": "activation_21", "trainable": true, "dtype": "float32", "activation": "hard_swish"}, "inbound_nodes": [[["expanded_conv_7/expand/BatchNorm", 0, 0, {}]]]}, {"name": "expanded_conv_7/depthwise", "class_name": "DepthwiseConv2D", "config": {"name": "expanded_conv_7/depthwise", "trainable": true, "dtype": "float32", "kernel_size": [3, 3], "strides": [1, 1], "padding": "same", "data_format": "channels_last", "dilation_rate": [1, 1], "activation": "linear", "use_bias": false, "bias_initializer": {"class_name": "Zeros", "config": {}}, "bias_regularizer": null, "activity_regularizer": null, "bias_constraint": null, "depth_multiplier": 1, "depthwise_initializer": {"class_name": "VarianceScaling", "config": {"scale": 1.0, "mode": "fan_avg", "distribution": "uniform", "seed": null}}, "depthwise_regularizer": null, "depthwise_constraint": null}, "inbound_nodes": [[["activation_21", 0, 0, {}]]]}, {"name": "expanded_conv_7/depthwise/BatchNorm", "class_name": "BatchNormalization", "config": {"name": "expanded_conv_7/depthwise/BatchNorm", "trainable": true, "dtype": "float32", "axis": -1, "momentum": 0.999, "epsilon": 0.001, "center": true, "scale": true, "beta_initializer": {"class_name": "Zeros", "config": {}}, "gamma_initializer": {"class_name": "Ones", "config": {}}, "moving_mean_initializer": {"class_name": "Zeros", "config": {}}, "moving_variance_initializer": {"class_name": "Ones", "config": {}}, "beta_regularizer": null, "gamma_regularizer": null, "beta_constraint": null, "gamma_constraint": null}, "inbound_nodes": [[["expanded_conv_7/depthwise", 0, 0, {}]]]}, {"name": "activation_23", "class_name": "Activation", "config": {"name": "activation_23", "trainable": true, "dtype": "float32", "activation": "hard_swish"}, "inbound_nodes": [[["expanded_conv_7/depthwise/BatchNorm", 0, 0, {}]]]}, {"name": "expanded_conv_7/project", "class_name": "Conv2D", "config": {"name": "expanded_conv_7/project", "trainable": true, "dtype": "float32", "filters": 80, "kernel_size": [1, 1], "strides": [1, 1], "padding": "same", "data_format": "channels_last", "dilation_rate": [1, 1], "activation": "linear", "use_bias": false, "kernel_initializer": {"class_name": "VarianceScaling", "config": {"scale": 1.0, "mode": "fan_avg", "distribution": "uniform", "seed": null}}, "bias_initializer": {"class_name": "Zeros", "config": {}}, "kernel_regularizer": null, "bias_regularizer": null, "activity_regularizer": null, "kernel_constraint": null, "bias_constraint": null}, "inbound_nodes": [[["activation_23", 0, 0, {}]]]}, {"name": "expanded_conv_7/project/BatchNorm", "class_name": "BatchNormalization", "config": {"name": "expanded_conv_7/project/BatchNorm", "trainable": true, "dtype": "float32", "axis": -1, "momentum": 0.999, "epsilon": 0.001, "center": true, "scale": true, "beta_initializer": {"class_name": "Zeros", "config": {}}, "gamma_initializer": {"class_name": "Ones", "config": {}}, "moving_mean_initializer": {"class_name": "Zeros", "config": {}}, "moving_variance_initializer": {"class_name": "Ones", "config": {}}, "beta_regularizer": null, "gamma_regularizer": null, "beta_constraint": null, "gamma_constraint": null}, "inbound_nodes": [[["expanded_conv_7/project", 0, 0, {}]]]}, {"name": "expanded_conv_7/Add", "class_name": "Add", "config": {"name": "expanded_conv_7/Add", "trainable": true, "dtype": "float32"}, "inbound_nodes": [[["expanded_conv_6/project/BatchNorm", 0, 0, {}], ["expanded_conv_7/project/BatchNorm", 0, 0, {}]]]}, {"name": "expanded_conv_8/expand", "class_name": "Conv2D", "config": {"name": "expanded_conv_8/expand", "trainable": true, "dtype": "float32", "filters": 184, "kernel_size": [1, 1], "strides": [1, 1], "padding": "same", "data_format": "channels_last", "dilation_rate": [1, 1], "activation": "linear", "use_bias": false, "kernel_initializer": {"class_name": "VarianceScaling", "config": {"scale": 1.0, "mode": "fan_avg", "distribution": "uniform", "seed": null}}, "bias_initializer": {"class_name": "Zeros", "config": {}}, "kernel_regularizer": null, "bias_regularizer": null, "activity_regularizer": null, "kernel_constraint": null, "bias_constraint": null}, "inbound_nodes": [[["expanded_conv_7/Add", 0, 0, {}]]]}, {"name": "expanded_conv_8/expand/BatchNorm", "class_name": "BatchNormalization", "config": {"name": "expanded_conv_8/expand/BatchNorm", "trainable": true, "dtype": "float32", "axis": -1, "momentum": 0.999, "epsilon": 0.001, "center": true, "scale": true, "beta_initializer": {"class_name": "Zeros", "config": {}}, "gamma_initializer": {"class_name": "Ones", "config": {}}, "moving_mean_initializer": {"class_name": "Zeros", "config": {}}, "moving_variance_initializer": {"class_name": "Ones", "config": {}}, "beta_regularizer": null, "gamma_regularizer": null, "beta_constraint": null, "gamma_constraint": null}, "inbound_nodes": [[["expanded_conv_8/expand", 0, 0, {}]]]}, {"name": "activation_25", "class_name": "Activation", "config": {"name": "activation_25", "trainable": true, "dtype": "float32", "activation": "hard_swish"}, "inbound_nodes": [[["expanded_conv_8/expand/BatchNorm", 0, 0, {}]]]}, {"name": "expanded_conv_8/depthwise", "class_name": "DepthwiseConv2D", "config": {"name": "expanded_conv_8/depthwise", "trainable": true, "dtype": "float32", "kernel_size": [3, 3], "strides": [1, 1], "padding": "same", "data_format": "channels_last", "dilation_rate": [1, 1], "activation": "linear", "use_bias": false, "bias_initializer": {"class_name": "Zeros", "config": {}}, "bias_regularizer": null, "activity_regularizer": null, "bias_constraint": null, "depth_multiplier": 1, "depthwise_initializer": {"class_name": "VarianceScaling", "config": {"scale": 1.0, "mode": "fan_avg", "distribution": "uniform", "seed": null}}, "depthwise_regularizer": null, "depthwise_constraint": null}, "inbound_nodes": [[["activation_25", 0, 0, {}]]]}, {"name": "expanded_conv_8/depthwise/BatchNorm", "class_name": "BatchNormalization", "config": {"name": "expanded_conv_8/depthwise/BatchNorm", "trainable": true, "dtype": "float32", "axis": -1, "momentum": 0.999, "epsilon": 0.001, "center": true, "scale": true, "beta_initializer": {"class_name": "Zeros", "config": {}}, "gamma_initializer": {"class_name": "Ones", "config": {}}, "moving_mean_initializer": {"class_name": "Zeros", "config": {}}, "moving_variance_initializer": {"class_name": "Ones", "config": {}}, "beta_regularizer": null, "gamma_regularizer": null, "beta_constraint": null, "gamma_constraint": null}, "inbound_nodes": [[["expanded_conv_8/depthwise", 0, 0, {}]]]}, {"name": "activation_27", "class_name": "Activation", "config": {"name": "activation_27", "trainable": true, "dtype": "float32", "activation": "hard_swish"}, "inbound_nodes": [[["expanded_conv_8/depthwise/BatchNorm", 0, 0, {}]]]}, {"name": "expanded_conv_8/project", "class_name": "Conv2D", "config": {"name": "expanded_conv_8/project", "trainable": true, "dtype": "float32", "filters": 80, "kernel_size": [1, 1], "strides": [1, 1], "padding": "same", "data_format": "channels_last", "dilation_rate": [1, 1], "activation": "linear", "use_bias": false, "kernel_initializer": {"class_name": "VarianceScaling", "config": {"scale": 1.0, "mode": "fan_avg", "distribution": "uniform", "seed": null}}, "bias_initializer": {"class_name": "Zeros", "config": {}}, "kernel_regularizer": null, "bias_regularizer": null, "activity_regularizer": null, "kernel_constraint": null, "bias_constraint": null}, "inbound_nodes": [[["activation_27", 0, 0, {}]]]}, {"name": "expanded_conv_8/project/BatchNorm", "class_name": "BatchNormalization", "config": {"name": "expanded_conv_8/project/BatchNorm", "trainable": true, "dtype": "float32", "axis": -1, "momentum": 0.999, "epsilon": 0.001, "center": true, "scale": true, "beta_initializer": {"class_name": "Zeros", "config": {}}, "gamma_initializer": {"class_name": "Ones", "config": {}}, "moving_mean_initializer": {"class_name": "Zeros", "config": {}}, "moving_variance_initializer": {"class_name": "Ones", "config": {}}, "beta_regularizer": null, "gamma_regularizer": null, "beta_constraint": null, "gamma_constraint": null}, "inbound_nodes": [[["expanded_conv_8/project", 0, 0, {}]]]}, {"name": "expanded_conv_8/Add", "class_name": "Add", "config": {"name": "expanded_conv_8/Add", "trainable": true, "dtype": "float32"}, "inbound_nodes": [[["expanded_conv_7/Add", 0, 0, {}], ["expanded_conv_8/project/BatchNorm", 0, 0, {}]]]}, {"name": "expanded_conv_9/expand", "class_name": "Conv2D", "config": {"name": "expanded_conv_9/expand", "trainable": true, "dtype": "float32", "filters": 184, "kernel_size": [1, 1], "strides": [1, 1], "padding": "same", "data_format": "channels_last", "dilation_rate": [1, 1], "activation": "linear", "use_bias": false, "kernel_initializer": {"class_name": "VarianceScaling", "config": {"scale": 1.0, "mode": "fan_avg", "distribution": "uniform", "seed": null}}, "bias_initializer": {"class_name": "Zeros", "config": {}}, "kernel_regularizer": null, "bias_regularizer": null, "activity_regularizer": null, "kernel_constraint": null, "bias_constraint": null}, "inbound_nodes": [[["expanded_conv_8/Add", 0, 0, {}]]]}, {"name": "expanded_conv_9/expand/BatchNorm", "class_name": "BatchNormalization", "config": {"name": "expanded_conv_9/expand/BatchNorm", "trainable": true, "dtype": "float32", "axis": -1, "momentum": 0.999, "epsilon": 0.001, "center": true, "scale": true, "beta_initializer": {"class_name": "Zeros", "config": {}}, "gamma_initializer": {"class_name": "Ones", "config": {}}, "moving_mean_initializer": {"class_name": "Zeros", "config": {}}, "moving_variance_initializer": {"class_name": "Ones", "config": {}}, "beta_regularizer": null, "gamma_regularizer": null, "beta_constraint": null, "gamma_constraint": null}, "inbound_nodes": [[["expanded_conv_9/expand", 0, 0, {}]]]}, {"name": "activation_29", "class_name": "Activation", "config": {"name": "activation_29", "trainable": true, "dtype": "float32", "activation": "hard_swish"}, "inbound_nodes": [[["expanded_conv_9/expand/BatchNorm", 0, 0, {}]]]}, {"name": "expanded_conv_9/depthwise", "class_name": "DepthwiseConv2D", "config": {"name": "expanded_conv_9/depthwise", "trainable": true, "dtype": "float32", "kernel_size": [3, 3], "strides": [1, 1], "padding": "same", "data_format": "channels_last", "dilation_rate": [1, 1], "activation": "linear", "use_bias": false, "bias_initializer": {"class_name": "Zeros", "config": {}}, "bias_regularizer": null, "activity_regularizer": null, "bias_constraint": null, "depth_multiplier": 1, "depthwise_initializer": {"class_name": "VarianceScaling", "config": {"scale": 1.0, "mode": "fan_avg", "distribution": "uniform", "seed": null}}, "depthwise_regularizer": null, "depthwise_constraint": null}, "inbound_nodes": [[["activation_29", 0, 0, {}]]]}, {"name": "expanded_conv_9/depthwise/BatchNorm", "class_name": "BatchNormalization", "config": {"name": "expanded_conv_9/depthwise/BatchNorm", "trainable": true, "dtype": "float32", "axis": -1, "momentum": 0.999, "epsilon": 0.001, "center": true, "scale": true, "beta_initializer": {"class_name": "Zeros", "config": {}}, "gamma_initializer": {"class_name": "Ones", "config": {}}, "moving_mean_initializer": {"class_name": "Zeros", "config": {}}, "moving_variance_initializer": {"class_name": "Ones", "config": {}}, "beta_regularizer": null, "gamma_regularizer": null, "beta_constraint": null, "gamma_constraint": null}, "inbound_nodes": [[["expanded_conv_9/depthwise", 0, 0, {}]]]}, {"name": "activation_31", "class_name": "Activation", "config": {"name": "activation_31", "trainable": true, "dtype": "float32", "activation": "hard_swish"}, "inbound_nodes": [[["expanded_conv_9/depthwise/BatchNorm", 0, 0, {}]]]}, {"name": "expanded_conv_9/project", "class_name": "Conv2D", "config": {"name": "expanded_conv_9/project", "trainable": true, "dtype": "float32", "filters": 80, "kernel_size": [1, 1], "strides": [1, 1], "padding": "same", "data_format": "channels_last", "dilation_rate": [1, 1], "activation": "linear", "use_bias": false, "kernel_initializer": {"class_name": "VarianceScaling", "config": {"scale": 1.0, "mode": "fan_avg", "distribution": "uniform", "seed": null}}, "bias_initializer": {"class_name": "Zeros", "config": {}}, "kernel_regularizer": null, "bias_regularizer": null, "activity_regularizer": null, "kernel_constraint": null, "bias_constraint": null}, "inbound_nodes": [[["activation_31", 0, 0, {}]]]}, {"name": "expanded_conv_9/project/BatchNorm", "class_name": "BatchNormalization", "config": {"name": "expanded_conv_9/project/BatchNorm", "trainable": true, "dtype": "float32", "axis": -1, "momentum": 0.999, "epsilon": 0.001, "center": true, "scale": true, "beta_initializer": {"class_name": "Zeros", "config": {}}, "gamma_initializer": {"class_name": "Ones", "config": {}}, "moving_mean_initializer": {"class_name": "Zeros", "config": {}}, "moving_variance_initializer": {"class_name": "Ones", "config": {}}, "beta_regularizer": null, "gamma_regularizer": null, "beta_constraint": null, "gamma_constraint": null}, "inbound_nodes": [[["expanded_conv_9/project", 0, 0, {}]]]}, {"name": "expanded_conv_9/Add", "class_name": "Add", "config": {"name": "expanded_conv_9/Add", "trainable": true, "dtype": "float32"}, "inbound_nodes": [[["expanded_conv_8/Add", 0, 0, {}], ["expanded_conv_9/project/BatchNorm", 0, 0, {}]]]}, {"name": "expanded_conv_10/expand", "class_name": "Conv2D", "config": {"name": "expanded_conv_10/expand", "trainable": true, "dtype": "float32", "filters": 480, "kernel_size": [1, 1], "strides": [1, 1], "padding": "same", "data_format": "channels_last", "dilation_rate": [1, 1], "activation": "linear", "use_bias": false, "kernel_initializer": {"class_name": "VarianceScaling", "config": {"scale": 1.0, "mode": "fan_avg", "distribution": "uniform", "seed": null}}, "bias_initializer": {"class_name": "Zeros", "config": {}}, "kernel_regularizer": null, "bias_regularizer": null, "activity_regularizer": null, "kernel_constraint": null, "bias_constraint": null}, "inbound_nodes": [[["expanded_conv_9/Add", 0, 0, {}]]]}, {"name": "expanded_conv_10/expand/BatchNorm", "class_name": "BatchNormalization", "config": {"name": "expanded_conv_10/expand/BatchNorm", "trainable": true, "dtype": "float32", "axis": -1, "momentum": 0.999, "epsilon": 0.001, "center": true, "scale": true, "beta_initializer": {"class_name": "Zeros", "config": {}}, "gamma_initializer": {"class_name": "Ones", "config": {}}, "moving_mean_initializer": {"class_name": "Zeros", "config": {}}, "moving_variance_initializer": {"class_name": "Ones", "config": {}}, "beta_regularizer": null, "gamma_regularizer": null, "beta_constraint": null, "gamma_constraint": null}, "inbound_nodes": [[["expanded_conv_10/expand", 0, 0, {}]]]}, {"name": "activation_33", "class_name": "Activation", "config": {"name": "activation_33", "trainable": true, "dtype": "float32", "activation": "hard_swish"}, "inbound_nodes": [[["expanded_conv_10/expand/BatchNorm", 0, 0, {}]]]}, {"name": "expanded_conv_10/depthwise", "class_name": "DepthwiseConv2D", "config": {"name": "expanded_conv_10/depthwise", "trainable": true, "dtype": "float32", "kernel_size": [3, 3], "strides": [1, 1], "padding": "same", "data_format": "channels_last", "dilation_rate": [1, 1], "activation": "linear", "use_bias": false, "bias_initializer": {"class_name": "Zeros", "config": {}}, "bias_regularizer": null, "activity_regularizer": null, "bias_constraint": null, "depth_multiplier": 1, "depthwise_initializer": {"class_name": "VarianceScaling", "config": {"scale": 1.0, "mode": "fan_avg", "distribution": "uniform", "seed": null}}, "depthwise_regularizer": null, "depthwise_constraint": null}, "inbound_nodes": [[["activation_33", 0, 0, {}]]]}, {"name": "expanded_conv_10/depthwise/BatchNorm", "class_name": "BatchNormalization", "config": {"name": "expanded_conv_10/depthwise/BatchNorm", "trainable": true, "dtype": "float32", "axis": -1, "momentum": 0.999, "epsilon": 0.001, "center": true, "scale": true, "beta_initializer": {"class_name": "Zeros", "config": {}}, "gamma_initializer": {"class_name": "Ones", "config": {}}, "moving_mean_initializer": {"class_name": "Zeros", "config": {}}, "moving_variance_initializer": {"class_name": "Ones", "config": {}}, "beta_regularizer": null, "gamma_regularizer": null, "beta_constraint": null, "gamma_constraint": null}, "inbound_nodes": [[["expanded_conv_10/depthwise", 0, 0, {}]]]}, {"name": "activation_35", "class_name": "Activation", "config": {"name": "activation_35", "trainable": true, "dtype": "float32", "activation": "hard_swish"}, "inbound_nodes": [[["expanded_conv_10/depthwise/BatchNorm", 0, 0, {}]]]}, {"name": "expanded_conv_10/squeeze_excite/AvgPool", "class_name": "GlobalAveragePooling2D", "config": {"name": "expanded_conv_10/squeeze_excite/AvgPool", "trainable": true, "dtype": "float32", "data_format": "channels_last"}, "inbound_nodes": [[["activation_35", 0, 0, {}]]]}, {"name": "reshape_4", "class_name": "Reshape", "config": {"name": "reshape_4", "trainable": true, "dtype": "float32", "target_shape": [1, 1, 480]}, "inbound_nodes": [[["expanded_conv_10/squeeze_excite/AvgPool", 0, 0, {}]]]}, {"name": "expanded_conv_10/squeeze_excite/Conv", "class_name": "Conv2D", "config": {"name": "expanded_conv_10/squeeze_excite/Conv", "trainable": true, "dtype": "float32", "filters": 120, "kernel_size": [1, 1], "strides": [1, 1], "padding": "same", "data_format": "channels_last", "dilation_rate": [1, 1], "activation": "linear", "use_bias": true, "kernel_initializer": {"class_name": "VarianceScaling", "config": {"scale": 1.0, "mode": "fan_avg", "distribution": "uniform", "seed": null}}, "bias_initializer": {"class_name": "Zeros", "config": {}}, "kernel_regularizer": null, "bias_regularizer": null, "activity_regularizer": null, "kernel_constraint": null, "bias_constraint": null}, "inbound_nodes": [[["reshape_4", 0, 0, {}]]]}, {"name": "expanded_conv_10/squeeze_excite/Relu", "class_name": "ReLU", "config": {"name": "expanded_conv_10/squeeze_excite/Relu", "trainable": true, "dtype": "float32", "max_value": null, "negative_slope": 0.0, "threshold": 0.0}, "inbound_nodes": [[["expanded_conv_10/squeeze_excite/Conv", 0, 0, {}]]]}, {"name": "expanded_conv_10/squeeze_excite/Conv_1", "class_name": "Conv2D", "config": {"name": "expanded_conv_10/squeeze_excite/Conv_1", "trainable": true, "dtype": "float32", "filters": 480, "kernel_size": [1, 1], "strides": [1, 1], "padding": "same", "data_format": "channels_last", "dilation_rate": [1, 1], "activation": "linear", "use_bias": true, "kernel_initializer": {"class_name": "VarianceScaling", "config": {"scale": 1.0, "mode": "fan_avg", "distribution": "uniform", "seed": null}}, "bias_initializer": {"class_name": "Zeros", "config": {}}, "kernel_regularizer": null, "bias_regularizer": null, "activity_regularizer": null, "kernel_constraint": null, "bias_constraint": null}, "inbound_nodes": [[["expanded_conv_10/squeeze_excite/Relu", 0, 0, {}]]]}, {"name": "activation_37", "class_name": "Activation", "config": {"name": "activation_37", "trainable": true, "dtype": "float32", "activation": "hard_sigmoid"}, "inbound_nodes": [[["expanded_conv_10/squeeze_excite/Conv_1", 0, 0, {}]]]}, {"name": "expanded_conv_10/squeeze_excite/Mul", "class_name": "Multiply", "config": {"name": "expanded_conv_10/squeeze_excite/Mul", "trainable": true, "dtype": "float32"}, "inbound_nodes": [[["activation_35", 0, 0, {}], ["activation_37", 0, 0, {}]]]}, {"name": "expanded_conv_10/project", "class_name": "Conv2D", "config": {"name": "expanded_conv_10/project", "trainable": true, "dtype": "float32", "filters": 112, "kernel_size": [1, 1], "strides": [1, 1], "padding": "same", "data_format": "channels_last", "dilation_rate": [1, 1], "activation": "linear", "use_bias": false, "kernel_initializer": {"class_name": "VarianceScaling", "config": {"scale": 1.0, "mode": "fan_avg", "distribution": "uniform", "seed": null}}, "bias_initializer": {"class_name": "Zeros", "config": {}}, "kernel_regularizer": null, "bias_regularizer": null, "activity_regularizer": null, "kernel_constraint": null, "bias_constraint": null}, "inbound_nodes": [[["expanded_conv_10/squeeze_excite/Mul", 0, 0, {}]]]}, {"name": "expanded_conv_10/project/BatchNorm", "class_name": "BatchNormalization", "config": {"name": "expanded_conv_10/project/BatchNorm", "trainable": true, "dtype": "float32", "axis": -1, "momentum": 0.999, "epsilon": 0.001, "center": true, "scale": true, "beta_initializer": {"class_name": "Zeros", "config": {}}, "gamma_initializer": {"class_name": "Ones", "config": {}}, "moving_mean_initializer": {"class_name": "Zeros", "config": {}}, "moving_variance_initializer": {"class_name": "Ones", "config": {}}, "beta_regularizer": null, "gamma_regularizer": null, "beta_constraint": null, "gamma_constraint": null}, "inbound_nodes": [[["expanded_conv_10/project", 0, 0, {}]]]}, {"name": "expanded_conv_11/expand", "class_name": "Conv2D", "config": {"name": "expanded_conv_11/expand", "trainable": true, "dtype": "float32", "filters": 672, "kernel_size": [1, 1], "strides": [1, 1], "padding": "same", "data_format": "channels_last", "dilation_rate": [1, 1], "activation": "linear", "use_bias": false, "kernel_initializer": {"class_name": "VarianceScaling", "config": {"scale": 1.0, "mode": "fan_avg", "distribution": "uniform", "seed": null}}, "bias_initializer": {"class_name": "Zeros", "config": {}}, "kernel_regularizer": null, "bias_regularizer": null, "activity_regularizer": null, "kernel_constraint": null, "bias_constraint": null}, "inbound_nodes": [[["expanded_conv_10/project/BatchNorm", 0, 0, {}]]]}, {"name": "expanded_conv_11/expand/BatchNorm", "class_name": "BatchNormalization", "config": {"name": "expanded_conv_11/expand/BatchNorm", "trainable": true, "dtype": "float32", "axis": -1, "momentum": 0.999, "epsilon": 0.001, "center": true, "scale": true, "beta_initializer": {"class_name": "Zeros", "config": {}}, "gamma_initializer": {"class_name": "Ones", "config": {}}, "moving_mean_initializer": {"class_name": "Zeros", "config": {}}, "moving_variance_initializer": {"class_name": "Ones", "config": {}}, "beta_regularizer": null, "gamma_regularizer": null, "beta_constraint": null, "gamma_constraint": null}, "inbound_nodes": [[["expanded_conv_11/expand", 0, 0, {}]]]}, {"name": "activation_38", "class_name": "Activation", "config": {"name": "activation_38", "trainable": true, "dtype": "float32", "activation": "hard_swish"}, "inbound_nodes": [[["expanded_conv_11/expand/BatchNorm", 0, 0, {}]]]}, {"name": "expanded_conv_11/depthwise", "class_name": "DepthwiseConv2D", "config": {"name": "expanded_conv_11/depthwise", "trainable": true, "dtype": "float32", "kernel_size": [3, 3], "strides": [1, 1], "padding": "same", "data_format": "channels_last", "dilation_rate": [1, 1], "activation": "linear", "use_bias": false, "bias_initializer": {"class_name": "Zeros", "config": {}}, "bias_regularizer": null, "activity_regularizer": null, "bias_constraint": null, "depth_multiplier": 1, "depthwise_initializer": {"class_name": "VarianceScaling", "config": {"scale": 1.0, "mode": "fan_avg", "distribution": "uniform", "seed": null}}, "depthwise_regularizer": null, "depthwise_constraint": null}, "inbound_nodes": [[["activation_38", 0, 0, {}]]]}, {"name": "expanded_conv_11/depthwise/BatchNorm", "class_name": "BatchNormalization", "config": {"name": "expanded_conv_11/depthwise/BatchNorm", "trainable": true, "dtype": "float32", "axis": -1, "momentum": 0.999, "epsilon": 0.001, "center": true, "scale": true, "beta_initializer": {"class_name": "Zeros", "config": {}}, "gamma_initializer": {"class_name": "Ones", "config": {}}, "moving_mean_initializer": {"class_name": "Zeros", "config": {}}, "moving_variance_initializer": {"class_name": "Ones", "config": {}}, "beta_regularizer": null, "gamma_regularizer": null, "beta_constraint": null, "gamma_constraint": null}, "inbound_nodes": [[["expanded_conv_11/depthwise", 0, 0, {}]]]}, {"name": "activation_40", "class_name": "Activation", "config": {"name": "activation_40", "trainable": true, "dtype": "float32", "activation": "hard_swish"}, "inbound_nodes": [[["expanded_conv_11/depthwise/BatchNorm", 0, 0, {}]]]}, {"name": "expanded_conv_11/squeeze_excite/AvgPool", "class_name": "GlobalAveragePooling2D", "config": {"name": "expanded_conv_11/squeeze_excite/AvgPool", "trainable": true, "dtype": "float32", "data_format": "channels_last"}, "inbound_nodes": [[["activation_40", 0, 0, {}]]]}, {"name": "reshape_5", "class_name": "Reshape", "config": {"name": "reshape_5", "trainable": true, "dtype": "float32", "target_shape": [1, 1, 672]}, "inbound_nodes": [[["expanded_conv_11/squeeze_excite/AvgPool", 0, 0, {}]]]}, {"name": "expanded_conv_11/squeeze_excite/Conv", "class_name": "Conv2D", "config": {"name": "expanded_conv_11/squeeze_excite/Conv", "trainable": true, "dtype": "float32", "filters": 168, "kernel_size": [1, 1], "strides": [1, 1], "padding": "same", "data_format": "channels_last", "dilation_rate": [1, 1], "activation": "linear", "use_bias": true, "kernel_initializer": {"class_name": "VarianceScaling", "config": {"scale": 1.0, "mode": "fan_avg", "distribution": "uniform", "seed": null}}, "bias_initializer": {"class_name": "Zeros", "config": {}}, "kernel_regularizer": null, "bias_regularizer": null, "activity_regularizer": null, "kernel_constraint": null, "bias_constraint": null}, "inbound_nodes": [[["reshape_5", 0, 0, {}]]]}, {"name": "expanded_conv_11/squeeze_excite/Relu", "class_name": "ReLU", "config": {"name": "expanded_conv_11/squeeze_excite/Relu", "trainable": true, "dtype": "float32", "max_value": null, "negative_slope": 0.0, "threshold": 0.0}, "inbound_nodes": [[["expanded_conv_11/squeeze_excite/Conv", 0, 0, {}]]]}, {"name": "expanded_conv_11/squeeze_excite/Conv_1", "class_name": "Conv2D", "config": {"name": "expanded_conv_11/squeeze_excite/Conv_1", "trainable": true, "dtype": "float32", "filters": 672, "kernel_size": [1, 1], "strides": [1, 1], "padding": "same", "data_format": "channels_last", "dilation_rate": [1, 1], "activation": "linear", "use_bias": true, "kernel_initializer": {"class_name": "VarianceScaling", "config": {"scale": 1.0, "mode": "fan_avg", "distribution": "uniform", "seed": null}}, "bias_initializer": {"class_name": "Zeros", "config": {}}, "kernel_regularizer": null, "bias_regularizer": null, "activity_regularizer": null, "kernel_constraint": null, "bias_constraint": null}, "inbound_nodes": [[["expanded_conv_11/squeeze_excite/Relu", 0, 0, {}]]]}, {"name": "activation_42", "class_name": "Activation", "config": {"name": "activation_42", "trainable": true, "dtype": "float32", "activation": "hard_sigmoid"}, "inbound_nodes": [[["expanded_conv_11/squeeze_excite/Conv_1", 0, 0, {}]]]}, {"name": "expanded_conv_11/squeeze_excite/Mul", "class_name": "Multiply", "config": {"name": "expanded_conv_11/squeeze_excite/Mul", "trainable": true, "dtype": "float32"}, "inbound_nodes": [[["activation_40", 0, 0, {}], ["activation_42", 0, 0, {}]]]}, {"name": "expanded_conv_11/project", "class_name": "Conv2D", "config": {"name": "expanded_conv_11/project", "trainable": true, "dtype": "float32", "filters": 112, "kernel_size": [1, 1], "strides": [1, 1], "padding": "same", "data_format": "channels_last", "dilation_rate": [1, 1], "activation": "linear", "use_bias": false, "kernel_initializer": {"class_name": "VarianceScaling", "config": {"scale": 1.0, "mode": "fan_avg", "distribution": "uniform", "seed": null}}, "bias_initializer": {"class_name": "Zeros", "config": {}}, "kernel_regularizer": null, "bias_regularizer": null, "activity_regularizer": null, "kernel_constraint": null, "bias_constraint": null}, "inbound_nodes": [[["expanded_conv_11/squeeze_excite/Mul", 0, 0, {}]]]}, {"name": "expanded_conv_11/project/BatchNorm", "class_name": "BatchNormalization", "config": {"name": "expanded_conv_11/project/BatchNorm", "trainable": true, "dtype": "float32", "axis": -1, "momentum": 0.999, "epsilon": 0.001, "center": true, "scale": true, "beta_initializer": {"class_name": "Zeros", "config": {}}, "gamma_initializer": {"class_name": "Ones", "config": {}}, "moving_mean_initializer": {"class_name": "Zeros", "config": {}}, "moving_variance_initializer": {"class_name": "Ones", "config": {}}, "beta_regularizer": null, "gamma_regularizer": null, "beta_constraint": null, "gamma_constraint": null}, "inbound_nodes": [[["expanded_conv_11/project", 0, 0, {}]]]}, {"name": "expanded_conv_11/Add", "class_name": "Add", "config": {"name": "expanded_conv_11/Add", "trainable": true, "dtype": "float32"}, "inbound_nodes": [[["expanded_conv_10/project/BatchNorm", 0, 0, {}], ["expanded_conv_11/project/BatchNorm", 0, 0, {}]]]}, {"name": "expanded_conv_12/expand", "class_name": "Conv2D", "config": {"name": "expanded_conv_12/expand", "trainable": true, "dtype": "float32", "filters": 672, "kernel_size": [1, 1], "strides": [1, 1], "padding": "same", "data_format": "channels_last", "dilation_rate": [1, 1], "activation": "linear", "use_bias": false, "kernel_initializer": {"class_name": "VarianceScaling", "config": {"scale": 1.0, "mode": "fan_avg", "distribution": "uniform", "seed": null}}, "bias_initializer": {"class_name": "Zeros", "config": {}}, "kernel_regularizer": null, "bias_regularizer": null, "activity_regularizer": null, "kernel_constraint": null, "bias_constraint": null}, "inbound_nodes": [[["expanded_conv_11/Add", 0, 0, {}]]]}, {"name": "expanded_conv_12/expand/BatchNorm", "class_name": "BatchNormalization", "config": {"name": "expanded_conv_12/expand/BatchNorm", "trainable": true, "dtype": "float32", "axis": -1, "momentum": 0.999, "epsilon": 0.001, "center": true, "scale": true, "beta_initializer": {"class_name": "Zeros", "config": {}}, "gamma_initializer": {"class_name": "Ones", "config": {}}, "moving_mean_initializer": {"class_name": "Zeros", "config": {}}, "moving_variance_initializer": {"class_name": "Ones", "config": {}}, "beta_regularizer": null, "gamma_regularizer": null, "beta_constraint": null, "gamma_constraint": null}, "inbound_nodes": [[["expanded_conv_12/expand", 0, 0, {}]]]}, {"name": "activation_43", "class_name": "Activation", "config": {"name": "activation_43", "trainable": true, "dtype": "float32", "activation": "hard_swish"}, "inbound_nodes": [[["expanded_conv_12/expand/BatchNorm", 0, 0, {}]]]}, {"name": "expanded_conv_12/depthwise/pad", "class_name": "ZeroPadding2D", "config": {"name": "expanded_conv_12/depthwise/pad", "trainable": true, "dtype": "float32", "padding": [[1, 2], [1, 2]], "data_format": "channels_last"}, "inbound_nodes": [[["activation_43", 0, 0, {}]]]}, {"name": "expanded_conv_12/depthwise", "class_name": "DepthwiseConv2D", "config": {"name": "expanded_conv_12/depthwise", "trainable": true, "dtype": "float32", "kernel_size": [5, 5], "strides": [2, 2], "padding": "valid", "data_format": "channels_last", "dilation_rate": [1, 1], "activation": "linear", "use_bias": false, "bias_initializer": {"class_name": "Zeros", "config": {}}, "bias_regularizer": null, "activity_regularizer": null, "bias_constraint": null, "depth_multiplier": 1, "depthwise_initializer": {"class_name": "VarianceScaling", "config": {"scale": 1.0, "mode": "fan_avg", "distribution": "uniform", "seed": null}}, "depthwise_regularizer": null, "depthwise_constraint": null}, "inbound_nodes": [[["expanded_conv_12/depthwise/pad", 0, 0, {}]]]}, {"name": "expanded_conv_12/depthwise/BatchNorm", "class_name": "BatchNormalization", "config": {"name": "expanded_conv_12/depthwise/BatchNorm", "trainable": true, "dtype": "float32", "axis": -1, "momentum": 0.999, "epsilon": 0.001, "center": true, "scale": true, "beta_initializer": {"class_name": "Zeros", "config": {}}, "gamma_initializer": {"class_name": "Ones", "config": {}}, "moving_mean_initializer": {"class_name": "Zeros", "config": {}}, "moving_variance_initializer": {"class_name": "Ones", "config": {}}, "beta_regularizer": null, "gamma_regularizer": null, "beta_constraint": null, "gamma_constraint": null}, "inbound_nodes": [[["expanded_conv_12/depthwise", 0, 0, {}]]]}, {"name": "activation_45", "class_name": "Activation", "config": {"name": "activation_45", "trainable": true, "dtype": "float32", "activation": "hard_swish"}, "inbound_nodes": [[["expanded_conv_12/depthwise/BatchNorm", 0, 0, {}]]]}, {"name": "expanded_conv_12/squeeze_excite/AvgPool", "class_name": "GlobalAveragePooling2D", "config": {"name": "expanded_conv_12/squeeze_excite/AvgPool", "trainable": true, "dtype": "float32", "data_format": "channels_last"}, "inbound_nodes": [[["activation_45", 0, 0, {}]]]}, {"name": "reshape_6", "class_name": "Reshape", "config": {"name": "reshape_6", "trainable": true, "dtype": "float32", "target_shape": [1, 1, 672]}, "inbound_nodes": [[["expanded_conv_12/squeeze_excite/AvgPool", 0, 0, {}]]]}, {"name": "expanded_conv_12/squeeze_excite/Conv", "class_name": "Conv2D", "config": {"name": "expanded_conv_12/squeeze_excite/Conv", "trainable": true, "dtype": "float32", "filters": 168, "kernel_size": [1, 1], "strides": [1, 1], "padding": "same", "data_format": "channels_last", "dilation_rate": [1, 1], "activation": "linear", "use_bias": true, "kernel_initializer": {"class_name": "VarianceScaling", "config": {"scale": 1.0, "mode": "fan_avg", "distribution": "uniform", "seed": null}}, "bias_initializer": {"class_name": "Zeros", "config": {}}, "kernel_regularizer": null, "bias_regularizer": null, "activity_regularizer": null, "kernel_constraint": null, "bias_constraint": null}, "inbound_nodes": [[["reshape_6", 0, 0, {}]]]}, {"name": "expanded_conv_12/squeeze_excite/Relu", "class_name": "ReLU", "config": {"name": "expanded_conv_12/squeeze_excite/Relu", "trainable": true, "dtype": "float32", "max_value": null, "negative_slope": 0.0, "threshold": 0.0}, "inbound_nodes": [[["expanded_conv_12/squeeze_excite/Conv", 0, 0, {}]]]}, {"name": "expanded_conv_12/squeeze_excite/Conv_1", "class_name": "Conv2D", "config": {"name": "expanded_conv_12/squeeze_excite/Conv_1", "trainable": true, "dtype": "float32", "filters": 672, "kernel_size": [1, 1], "strides": [1, 1], "padding": "same", "data_format": "channels_last", "dilation_rate": [1, 1], "activation": "linear", "use_bias": true, "kernel_initializer": {"class_name": "VarianceScaling", "config": {"scale": 1.0, "mode": "fan_avg", "distribution": "uniform", "seed": null}}, "bias_initializer": {"class_name": "Zeros", "config": {}}, "kernel_regularizer": null, "bias_regularizer": null, "activity_regularizer": null, "kernel_constraint": null, "bias_constraint": null}, "inbound_nodes": [[["expanded_conv_12/squeeze_excite/Relu", 0, 0, {}]]]}, {"name": "activation_47", "class_name": "Activation", "config": {"name": "activation_47", "trainable": true, "dtype": "float32", "activation": "hard_sigmoid"}, "inbound_nodes": [[["expanded_conv_12/squeeze_excite/Conv_1", 0, 0, {}]]]}, {"name": "expanded_conv_12/squeeze_excite/Mul", "class_name": "Multiply", "config": {"name": "expanded_conv_12/squeeze_excite/Mul", "trainable": true, "dtype": "float32"}, "inbound_nodes": [[["activation_45", 0, 0, {}], ["activation_47", 0, 0, {}]]]}, {"name": "expanded_conv_12/project", "class_name": "Conv2D", "config": {"name": "expanded_conv_12/project", "trainable": true, "dtype": "float32", "filters": 160, "kernel_size": [1, 1], "strides": [1, 1], "padding": "same", "data_format": "channels_last", "dilation_rate": [1, 1], "activation": "linear", "use_bias": false, "kernel_initializer": {"class_name": "VarianceScaling", "config": {"scale": 1.0, "mode": "fan_avg", "distribution": "uniform", "seed": null}}, "bias_initializer": {"class_name": "Zeros", "config": {}}, "kernel_regularizer": null, "bias_regularizer": null, "activity_regularizer": null, "kernel_constraint": null, "bias_constraint": null}, "inbound_nodes": [[["expanded_conv_12/squeeze_excite/Mul", 0, 0, {}]]]}, {"name": "expanded_conv_12/project/BatchNorm", "class_name": "BatchNormalization", "config": {"name": "expanded_conv_12/project/BatchNorm", "trainable": true, "dtype": "float32", "axis": -1, "momentum": 0.999, "epsilon": 0.001, "center": true, "scale": true, "beta_initializer": {"class_name": "Zeros", "config": {}}, "gamma_initializer": {"class_name": "Ones", "config": {}}, "moving_mean_initializer": {"class_name": "Zeros", "config": {}}, "moving_variance_initializer": {"class_name": "Ones", "config": {}}, "beta_regularizer": null, "gamma_regularizer": null, "beta_constraint": null, "gamma_constraint": null}, "inbound_nodes": [[["expanded_conv_12/project", 0, 0, {}]]]}, {"name": "expanded_conv_13/expand", "class_name": "Conv2D", "config": {"name": "expanded_conv_13/expand", "trainable": true, "dtype": "float32", "filters": 960, "kernel_size": [1, 1], "strides": [1, 1], "padding": "same", "data_format": "channels_last", "dilation_rate": [1, 1], "activation": "linear", "use_bias": false, "kernel_initializer": {"class_name": "VarianceScaling", "config": {"scale": 1.0, "mode": "fan_avg", "distribution": "uniform", "seed": null}}, "bias_initializer": {"class_name": "Zeros", "config": {}}, "kernel_regularizer": null, "bias_regularizer": null, "activity_regularizer": null, "kernel_constraint": null, "bias_constraint": null}, "inbound_nodes": [[["expanded_conv_12/project/BatchNorm", 0, 0, {}]]]}, {"name": "expanded_conv_13/expand/BatchNorm", "class_name": "BatchNormalization", "config": {"name": "expanded_conv_13/expand/BatchNorm", "trainable": true, "dtype": "float32", "axis": -1, "momentum": 0.999, "epsilon": 0.001, "center": true, "scale": true, "beta_initializer": {"class_name": "Zeros", "config": {}}, "gamma_initializer": {"class_name": "Ones", "config": {}}, "moving_mean_initializer": {"class_name": "Zeros", "config": {}}, "moving_variance_initializer": {"class_name": "Ones", "config": {}}, "beta_regularizer": null, "gamma_regularizer": null, "beta_constraint": null, "gamma_constraint": null}, "inbound_nodes": [[["expanded_conv_13/expand", 0, 0, {}]]]}, {"name": "activation_48", "class_name": "Activation", "config": {"name": "activation_48", "trainable": true, "dtype": "float32", "activation": "hard_swish"}, "inbound_nodes": [[["expanded_conv_13/expand/BatchNorm", 0, 0, {}]]]}, {"name": "expanded_conv_13/depthwise", "class_name": "DepthwiseConv2D", "config": {"name": "expanded_conv_13/depthwise", "trainable": true, "dtype": "float32", "kernel_size": [5, 5], "strides": [1, 1], "padding": "same", "data_format": "channels_last", "dilation_rate": [1, 1], "activation": "linear", "use_bias": false, "bias_initializer": {"class_name": "Zeros", "config": {}}, "bias_regularizer": null, "activity_regularizer": null, "bias_constraint": null, "depth_multiplier": 1, "depthwise_initializer": {"class_name": "VarianceScaling", "config": {"scale": 1.0, "mode": "fan_avg", "distribution": "uniform", "seed": null}}, "depthwise_regularizer": null, "depthwise_constraint": null}, "inbound_nodes": [[["activation_48", 0, 0, {}]]]}, {"name": "expanded_conv_13/depthwise/BatchNorm", "class_name": "BatchNormalization", "config": {"name": "expanded_conv_13/depthwise/BatchNorm", "trainable": true, "dtype": "float32", "axis": -1, "momentum": 0.999, "epsilon": 0.001, "center": true, "scale": true, "beta_initializer": {"class_name": "Zeros", "config": {}}, "gamma_initializer": {"class_name": "Ones", "config": {}}, "moving_mean_initializer": {"class_name": "Zeros", "config": {}}, "moving_variance_initializer": {"class_name": "Ones", "config": {}}, "beta_regularizer": null, "gamma_regularizer": null, "beta_constraint": null, "gamma_constraint": null}, "inbound_nodes": [[["expanded_conv_13/depthwise", 0, 0, {}]]]}, {"name": "activation_50", "class_name": "Activation", "config": {"name": "activation_50", "trainable": true, "dtype": "float32", "activation": "hard_swish"}, "inbound_nodes": [[["expanded_conv_13/depthwise/BatchNorm", 0, 0, {}]]]}, {"name": "expanded_conv_13/squeeze_excite/AvgPool", "class_name": "GlobalAveragePooling2D", "config": {"name": "expanded_conv_13/squeeze_excite/AvgPool", "trainable": true, "dtype": "float32", "data_format": "channels_last"}, "inbound_nodes": [[["activation_50", 0, 0, {}]]]}, {"name": "reshape_7", "class_name": "Reshape", "config": {"name": "reshape_7", "trainable": true, "dtype": "float32", "target_shape": [1, 1, 960]}, "inbound_nodes": [[["expanded_conv_13/squeeze_excite/AvgPool", 0, 0, {}]]]}, {"name": "expanded_conv_13/squeeze_excite/Conv", "class_name": "Conv2D", "config": {"name": "expanded_conv_13/squeeze_excite/Conv", "trainable": true, "dtype": "float32", "filters": 240, "kernel_size": [1, 1], "strides": [1, 1], "padding": "same", "data_format": "channels_last", "dilation_rate": [1, 1], "activation": "linear", "use_bias": true, "kernel_initializer": {"class_name": "VarianceScaling", "config": {"scale": 1.0, "mode": "fan_avg", "distribution": "uniform", "seed": null}}, "bias_initializer": {"class_name": "Zeros", "config": {}}, "kernel_regularizer": null, "bias_regularizer": null, "activity_regularizer": null, "kernel_constraint": null, "bias_constraint": null}, "inbound_nodes": [[["reshape_7", 0, 0, {}]]]}, {"name": "expanded_conv_13/squeeze_excite/Relu", "class_name": "ReLU", "config": {"name": "expanded_conv_13/squeeze_excite/Relu", "trainable": true, "dtype": "float32", "max_value": null, "negative_slope": 0.0, "threshold": 0.0}, "inbound_nodes": [[["expanded_conv_13/squeeze_excite/Conv", 0, 0, {}]]]}, {"name": "expanded_conv_13/squeeze_excite/Conv_1", "class_name": "Conv2D", "config": {"name": "expanded_conv_13/squeeze_excite/Conv_1", "trainable": true, "dtype": "float32", "filters": 960, "kernel_size": [1, 1], "strides": [1, 1], "padding": "same", "data_format": "channels_last", "dilation_rate": [1, 1], "activation": "linear", "use_bias": true, "kernel_initializer": {"class_name": "VarianceScaling", "config": {"scale": 1.0, "mode": "fan_avg", "distribution": "uniform", "seed": null}}, "bias_initializer": {"class_name": "Zeros", "config": {}}, "kernel_regularizer": null, "bias_regularizer": null, "activity_regularizer": null, "kernel_constraint": null, "bias_constraint": null}, "inbound_nodes": [[["expanded_conv_13/squeeze_excite/Relu", 0, 0, {}]]]}, {"name": "activation_52", "class_name": "Activation", "config": {"name": "activation_52", "trainable": true, "dtype": "float32", "activation": "hard_sigmoid"}, "inbound_nodes": [[["expanded_conv_13/squeeze_excite/Conv_1", 0, 0, {}]]]}, {"name": "expanded_conv_13/squeeze_excite/Mul", "class_name": "Multiply", "config": {"name": "expanded_conv_13/squeeze_excite/Mul", "trainable": true, "dtype": "float32"}, "inbound_nodes": [[["activation_50", 0, 0, {}], ["activation_52", 0, 0, {}]]]}, {"name": "expanded_conv_13/project", "class_name": "Conv2D", "config": {"name": "expanded_conv_13/project", "trainable": true, "dtype": "float32", "filters": 160, "kernel_size": [1, 1], "strides": [1, 1], "padding": "same", "data_format": "channels_last", "dilation_rate": [1, 1], "activation": "linear", "use_bias": false, "kernel_initializer": {"class_name": "VarianceScaling", "config": {"scale": 1.0, "mode": "fan_avg", "distribution": "uniform", "seed": null}}, "bias_initializer": {"class_name": "Zeros", "config": {}}, "kernel_regularizer": null, "bias_regularizer": null, "activity_regularizer": null, "kernel_constraint": null, "bias_constraint": null}, "inbound_nodes": [[["expanded_conv_13/squeeze_excite/Mul", 0, 0, {}]]]}, {"name": "expanded_conv_13/project/BatchNorm", "class_name": "BatchNormalization", "config": {"name": "expanded_conv_13/project/BatchNorm", "trainable": true, "dtype": "float32", "axis": -1, "momentum": 0.999, "epsilon": 0.001, "center": true, "scale": true, "beta_initializer": {"class_name": "Zeros", "config": {}}, "gamma_initializer": {"class_name": "Ones", "config": {}}, "moving_mean_initializer": {"class_name": "Zeros", "config": {}}, "moving_variance_initializer": {"class_name": "Ones", "config": {}}, "beta_regularizer": null, "gamma_regularizer": null, "beta_constraint": null, "gamma_constraint": null}, "inbound_nodes": [[["expanded_conv_13/project", 0, 0, {}]]]}, {"name": "expanded_conv_13/Add", "class_name": "Add", "config": {"name": "expanded_conv_13/Add", "trainable": true, "dtype": "float32"}, "inbound_nodes": [[["expanded_conv_12/project/BatchNorm", 0, 0, {}], ["expanded_conv_13/project/BatchNorm", 0, 0, {}]]]}, {"name": "expanded_conv_14/expand", "class_name": "Conv2D", "config": {"name": "expanded_conv_14/expand", "trainable": true, "dtype": "float32", "filters": 960, "kernel_size": [1, 1], "strides": [1, 1], "padding": "same", "data_format": "channels_last", "dilation_rate": [1, 1], "activation": "linear", "use_bias": false, "kernel_initializer": {"class_name": "VarianceScaling", "config": {"scale": 1.0, "mode": "fan_avg", "distribution": "uniform", "seed": null}}, "bias_initializer": {"class_name": "Zeros", "config": {}}, "kernel_regularizer": null, "bias_regularizer": null, "activity_regularizer": null, "kernel_constraint": null, "bias_constraint": null}, "inbound_nodes": [[["expanded_conv_13/Add", 0, 0, {}]]]}, {"name": "expanded_conv_14/expand/BatchNorm", "class_name": "BatchNormalization", "config": {"name": "expanded_conv_14/expand/BatchNorm", "trainable": true, "dtype": "float32", "axis": -1, "momentum": 0.999, "epsilon": 0.001, "center": true, "scale": true, "beta_initializer": {"class_name": "Zeros", "config": {}}, "gamma_initializer": {"class_name": "Ones", "config": {}}, "moving_mean_initializer": {"class_name": "Zeros", "config": {}}, "moving_variance_initializer": {"class_name": "Ones", "config": {}}, "beta_regularizer": null, "gamma_regularizer": null, "beta_constraint": null, "gamma_constraint": null}, "inbound_nodes": [[["expanded_conv_14/expand", 0, 0, {}]]]}, {"name": "activation_53", "class_name": "Activation", "config": {"name": "activation_53", "trainable": true, "dtype": "float32", "activation": "hard_swish"}, "inbound_nodes": [[["expanded_conv_14/expand/BatchNorm", 0, 0, {}]]]}, {"name": "expanded_conv_14/depthwise", "class_name": "DepthwiseConv2D", "config": {"name": "expanded_conv_14/depthwise", "trainable": true, "dtype": "float32", "kernel_size": [5, 5], "strides": [1, 1], "padding": "same", "data_format": "channels_last", "dilation_rate": [1, 1], "activation": "linear", "use_bias": false, "bias_initializer": {"class_name": "Zeros", "config": {}}, "bias_regularizer": null, "activity_regularizer": null, "bias_constraint": null, "depth_multiplier": 1, "depthwise_initializer": {"class_name": "VarianceScaling", "config": {"scale": 1.0, "mode": "fan_avg", "distribution": "uniform", "seed": null}}, "depthwise_regularizer": null, "depthwise_constraint": null}, "inbound_nodes": [[["activation_53", 0, 0, {}]]]}, {"name": "expanded_conv_14/depthwise/BatchNorm", "class_name": "BatchNormalization", "config": {"name": "expanded_conv_14/depthwise/BatchNorm", "trainable": true, "dtype": "float32", "axis": -1, "momentum": 0.999, "epsilon": 0.001, "center": true, "scale": true, "beta_initializer": {"class_name": "Zeros", "config": {}}, "gamma_initializer": {"class_name": "Ones", "config": {}}, "moving_mean_initializer": {"class_name": "Zeros", "config": {}}, "moving_variance_initializer": {"class_name": "Ones", "config": {}}, "beta_regularizer": null, "gamma_regularizer": null, "beta_constraint": null, "gamma_constraint": null}, "inbound_nodes": [[["expanded_conv_14/depthwise", 0, 0, {}]]]}, {"name": "activation_55", "class_name": "Activation", "config": {"name": "activation_55", "trainable": true, "dtype": "float32", "activation": "hard_swish"}, "inbound_nodes": [[["expanded_conv_14/depthwise/BatchNorm", 0, 0, {}]]]}, {"name": "expanded_conv_14/squeeze_excite/AvgPool", "class_name": "GlobalAveragePooling2D", "config": {"name": "expanded_conv_14/squeeze_excite/AvgPool", "trainable": true, "dtype": "float32", "data_format": "channels_last"}, "inbound_nodes": [[["activation_55", 0, 0, {}]]]}, {"name": "reshape_8", "class_name": "Reshape", "config": {"name": "reshape_8", "trainable": true, "dtype": "float32", "target_shape": [1, 1, 960]}, "inbound_nodes": [[["expanded_conv_14/squeeze_excite/AvgPool", 0, 0, {}]]]}, {"name": "expanded_conv_14/squeeze_excite/Conv", "class_name": "Conv2D", "config": {"name": "expanded_conv_14/squeeze_excite/Conv", "trainable": true, "dtype": "float32", "filters": 240, "kernel_size": [1, 1], "strides": [1, 1], "padding": "same", "data_format": "channels_last", "dilation_rate": [1, 1], "activation": "linear", "use_bias": true, "kernel_initializer": {"class_name": "VarianceScaling", "config": {"scale": 1.0, "mode": "fan_avg", "distribution": "uniform", "seed": null}}, "bias_initializer": {"class_name": "Zeros", "config": {}}, "kernel_regularizer": null, "bias_regularizer": null, "activity_regularizer": null, "kernel_constraint": null, "bias_constraint": null}, "inbound_nodes": [[["reshape_8", 0, 0, {}]]]}, {"name": "expanded_conv_14/squeeze_excite/Relu", "class_name": "ReLU", "config": {"name": "expanded_conv_14/squeeze_excite/Relu", "trainable": true, "dtype": "float32", "max_value": null, "negative_slope": 0.0, "threshold": 0.0}, "inbound_nodes": [[["expanded_conv_14/squeeze_excite/Conv", 0, 0, {}]]]}, {"name": "expanded_conv_14/squeeze_excite/Conv_1", "class_name": "Conv2D", "config": {"name": "expanded_conv_14/squeeze_excite/Conv_1", "trainable": true, "dtype": "float32", "filters": 960, "kernel_size": [1, 1], "strides": [1, 1], "padding": "same", "data_format": "channels_last", "dilation_rate": [1, 1], "activation": "linear", "use_bias": true, "kernel_initializer": {"class_name": "VarianceScaling", "config": {"scale": 1.0, "mode": "fan_avg", "distribution": "uniform", "seed": null}}, "bias_initializer": {"class_name": "Zeros", "config": {}}, "kernel_regularizer": null, "bias_regularizer": null, "activity_regularizer": null, "kernel_constraint": null, "bias_constraint": null}, "inbound_nodes": [[["expanded_conv_14/squeeze_excite/Relu", 0, 0, {}]]]}, {"name": "activation_57", "class_name": "Activation", "config": {"name": "activation_57", "trainable": true, "dtype": "float32", "activation": "hard_sigmoid"}, "inbound_nodes": [[["expanded_conv_14/squeeze_excite/Conv_1", 0, 0, {}]]]}, {"name": "expanded_conv_14/squeeze_excite/Mul", "class_name": "Multiply", "config": {"name": "expanded_conv_14/squeeze_excite/Mul", "trainable": true, "dtype": "float32"}, "inbound_nodes": [[["activation_55", 0, 0, {}], ["activation_57", 0, 0, {}]]]}, {"name": "expanded_conv_14/project", "class_name": "Conv2D", "config": {"name": "expanded_conv_14/project", "trainable": true, "dtype": "float32", "filters": 160, "kernel_size": [1, 1], "strides": [1, 1], "padding": "same", "data_format": "channels_last", "dilation_rate": [1, 1], "activation": "linear", "use_bias": false, "kernel_initializer": {"class_name": "VarianceScaling", "config": {"scale": 1.0, "mode": "fan_avg", "distribution": "uniform", "seed": null}}, "bias_initializer": {"class_name": "Zeros", "config": {}}, "kernel_regularizer": null, "bias_regularizer": null, "activity_regularizer": null, "kernel_constraint": null, "bias_constraint": null}, "inbound_nodes": [[["expanded_conv_14/squeeze_excite/Mul", 0, 0, {}]]]}, {"name": "expanded_conv_14/project/BatchNorm", "class_name": "BatchNormalization", "config": {"name": "expanded_conv_14/project/BatchNorm", "trainable": true, "dtype": "float32", "axis": -1, "momentum": 0.999, "epsilon": 0.001, "center": true, "scale": true, "beta_initializer": {"class_name": "Zeros", "config": {}}, "gamma_initializer": {"class_name": "Ones", "config": {}}, "moving_mean_initializer": {"class_name": "Zeros", "config": {}}, "moving_variance_initializer": {"class_name": "Ones", "config": {}}, "beta_regularizer": null, "gamma_regularizer": null, "beta_constraint": null, "gamma_constraint": null}, "inbound_nodes": [[["expanded_conv_14/project", 0, 0, {}]]]}, {"name": "expanded_conv_14/Add", "class_name": "Add", "config": {"name": "expanded_conv_14/Add", "trainable": true, "dtype": "float32"}, "inbound_nodes": [[["expanded_conv_13/Add", 0, 0, {}], ["expanded_conv_14/project/BatchNorm", 0, 0, {}]]]}, {"name": "Conv_1", "class_name": "Conv2D", "config": {"name": "Conv_1", "trainable": true, "dtype": "float32", "filters": 960, "kernel_size": [1, 1], "strides": [1, 1], "padding": "same", "data_format": "channels_last", "dilation_rate": [1, 1], "activation": "linear", "use_bias": false, "kernel_initializer": {"class_name": "VarianceScaling", "config": {"scale": 1.0, "mode": "fan_avg", "distribution": "uniform", "seed": null}}, "bias_initializer": {"class_name": "Zeros", "config": {}}, "kernel_regularizer": null, "bias_regularizer": null, "activity_regularizer": null, "kernel_constraint": null, "bias_constraint": null}, "inbound_nodes": [[["expanded_conv_14/Add", 0, 0, {}]]]}, {"name": "Conv_1/BatchNorm", "class_name": "BatchNormalization", "config": {"name": "Conv_1/BatchNorm", "trainable": true, "dtype": "float32", "axis": -1, "momentum": 0.999, "epsilon": 0.001, "center": true, "scale": true, "beta_initializer": {"class_name": "Zeros", "config": {}}, "gamma_initializer": {"class_name": "Ones", "config": {}}, "moving_mean_initializer": {"class_name": "Zeros", "config": {}}, "moving_variance_initializer": {"class_name": "Ones", "config": {}}, "beta_regularizer": null, "gamma_regularizer": null, "beta_constraint": null, "gamma_constraint": null}, "inbound_nodes": [[["Conv_1", 0, 0, {}]]]}, {"name": "activation_58", "class_name": "Activation", "config": {"name": "activation_58", "trainable": true, "dtype": "float32", "activation": "hard_swish"}, "inbound_nodes": [[["Conv_1/BatchNorm", 0, 0, {}]]]}, {"name": "global_average_pooling2d_1", "class_name": "GlobalAveragePooling2D", "config": {"name": "global_average_pooling2d_1", "trainable": true, "dtype": "float32", "data_format": "channels_last"}, "inbound_nodes": [[["activation_58", 0, 0, {}]]]}, {"name": "dense_1", "class_name": "Dense", "config": {"name": "dense_1", "trainable": true, "dtype": "float32", "units": 8, "activation": "softmax", "use_bias": true, "kernel_initializer": {"class_name": "VarianceScaling", "config": {"scale": 1.0, "mode": "fan_avg", "distribution": "uniform", "seed": null}}, "bias_initializer": {"class_name": "Zeros", "config": {}}, "kernel_regularizer": null, "bias_regularizer": null, "activity_regularizer": null, "kernel_constraint": null, "bias_constraint": null}, "inbound_nodes": [[["global_average_pooling2d_1", 0, 0, {}]]]}], "input_layers": [["input_1", 0, 0]], "output_layers": [["dense_1", 0, 0]]}, "keras_version": "2.3.1", "backend": "tensorflow"}